final/pdiot_final/pdiotapp/app/src/main/assets/ConvMix4s.tflite (tflite, 594408 bytes, 166 tensors)

sequential_40/sequential_9/residual_4/sequential_8/conv1d_9/BiasAdd/ReadVariableOp/resource f4 [64]
0.05971658 0.047351893 -0.08547879 0.11185003 0.119385384 0.0030634727 -0.02404664 0.06997913
-0.047056004 0.10963526 0.06760958 0.05506759 -0.083061375 0.13724484 0.06757505 0.05665046
0.05957461 0.1566243 0.070014864 0.10280615 0.15413007 0.006466959 0.14568804 0.083951876
0.037993062 -0.071367726 0.20359373 0.049986325 -0.03891015 0.041948896 0.08695552 0.046602067
0.12105282 -0.02495373 0.12575033 0.081948355 -0.03202857 0.11643808 0.13162649 0.072951145
0.1267127 -0.11993837 0.056213245 -0.0045408057 0.016283652 0.09693549 0.026199684 -0.014257383
0.18223397 0.17232852 0.105660945 0.13333906 0.03850616 0.08147188 0.021013152 0.21929859
0.10676203 0.24973655 0.046770886 0.07110313 0.041460816 -0.084320426 -0.12643962 0.017362967
00000000: 5f99 743d 0ff4 413d 810f afbd a111 e53d
00000010: 5380 f43d 8bc4 483b 76fd c4bc 3851 8f3d
00000020: ccbd 40bd 7488 e03d e476 8a3d 8e8e 613d
00000030: 151c aabd e989 0c3e ca64 8a3d 500a 683d
00000040: 8204 743d 1f62 203e f463 8f3d 088c d23d
00000050: 46d4 1d3e c9e8 d33b 3f2f 153e f6ee ab3d
00000060: 9d9e 1b3d 3e29 92bd e07a 503e 76be 4c3d
00000070: 4060 1fbd 9bd2 2b3d bc15 b23d cfe1 3e3d
00000080: 8aea f73d c46b ccbc b2c4 003e 8ad4 a73d
00000090: 6430 03bd 1777 ee3d 18c9 063e 6967 953d
000000a0: f9c0 013e 40a2 f5bd dc3f 663d 0acb 94bb
000000b0: 4b65 853c 1d86 c63d b8a0 d63c cc97 69bc
000000c0: 8b9b 3a3e e376 303e c464 d83d 098a 083e
000000d0: a3b8 1d3d bbda a63d c623 ac3c cf8f 603e
000000e0: 0da6 da3d f0ba 7f3e d492 3f3d 859e 913d
000000f0: d1d2 293d 30b0 acbd 6379 01be c83c 8e3c

sequential_40/sequential_9/conv1d_10/BiasAdd/ReadVariableOp/resource f4 [64]
0.08649239 0.09674439 0.059740093 0.06974086 0.12094926 0.1848067 -0.04473915 0.009438634
0.098721415 0.1738776 0.09609548 0.11296644 0.17405632 0.08600736 0.011810769 0.11788749
0.044032533 0.08184303 -0.06978769 0.15461896 -0.01836147 0.1023621 0.2054741 0.08113634
0.14491837 0.061435048 0.044576522 -0.0819839 0.08912083 0.1276899 0.060823496 0.15455556
-0.05287736 0.07334609 0.011740884 0.06721373 0.15735899 0.22856174 0.0041498723 0.049866688
0.019125415 0.14646037 0.16591845 0.028415782 0.08154176 0.15764306 0.05908954 0.13949876
0.14552595 -0.015820684 0.2029721 0.082087435 0.07865732 0.02612896 0.014942303 0.03624973
0.068745494 0.13146417 0.067557596 0.17034096 0.043361038 0.0949661 0.0480682 0.12473641
00000000: ec22 b13d ec21 c63d 07b2 743d 4cd4 8e3d
00000010: 3fb4 f73d f83d 3d3e 6640 37bd 80a4 1a3c
00000020: 742e ca3d f80c 323e b5cd c43d f35a e73d
00000030: d23b 323e a024 b03d f581 413c ff6e f13d
00000040: 755b 343d 529d a73d d9ec 8ebd 6f54 1e3e
00000050: cb6a 96bc 38a3 d13d cd67 523e cf2a a63d
00000060: 7b65 143e 51a3 7b3d df95 363d 2de7 a7bd
00000070: fb84 b63d 24c1 023e 0f22 793d d043 1e3e
00000080: ee95 58bd 7a36 963d d65c 403c 5aa7 893d
00000090: b722 213e 170c 6a3e a7fb 873b 0341 4c3d
000000a0: e7ac 9c3c b5f9 153e 87e6 293e 37c8 e83c
000000b0: 5eff a63d 2f6d 213e e007 723d c3d8 0e3e
000000c0: c104 153e 619a 81bc ebd7 4f3e 751d a83d
000000d0: 1717 a13d 670c d63c 90d0 743c 997a 143d
000000e0: 70ca 8c3d 8b9e 063e a35b 8a3d dc6d 2e3e
000000f0: 589b 313d 967d c23d 29e3 443d ce75 ff3d

sequential_40/sequential_7/residual_3/sequential_6/conv1d_7/BiasAdd/ReadVariableOp/resource f4 [64]
0.16478842 0.041607574 0.013087737 0.136091 0.019709473 0.06089533 0.116012104 0.08877776
-0.02017377 0.02080149 0.038222533 0.23233587 0.15347397 0.011329765 -0.058249876 -0.014185682
0.19398902 0.19188608 0.12608972 0.16417703 0.0793041 -0.019467508 0.06432454 0.09146951
-0.011118614 0.08205519 0.028200079 0.11581793 0.032318793 0.07370053 0.10593888 0.08949038
0.051339474 0.03143294 0.034554698 0.025946455 0.023611851 -0.033337384 -0.002984263 0.051688388
0.11244281 0.053868398 0.1099696 -0.046092723 0.16913001 -0.08923375 0.04832942 0.033423204
-0.02295974 0.05142928 -0.017453078 0.07030432 -0.1122913 0.03771331 0.041175384 0.008433281
0.053490087 0.00092963607 0.11861055 0.18850954 0.1539466 0.11384517 0.15774846 -0.024446314
00000000: 4cbe 283e b46c 2a3d f36d 563c 705b 0b3e
00000010: c375 a13c 626d 793d c197 ed3d 1dd1 b53d
00000020: 7643 a5bc e367 aa3c 3b8f 1c3d 74e9 6d3e
00000030: 4828 1d3e 7ba0 393c 6c97 6ebd 106b 68bc
00000040: 0fa5 463e c97d 443e aa1d 013e 061e 283e
00000050: 306a a23d 537a 9fbc 96bc 833d 5e54 bb3d
00000060: d92a 36bc 8d0c a83d da03 e73c f331 ed3d
00000070: b660 043d 4ef0 963d 7cf6 d83d bb46 b73d
00000080: 5749 523d d4bf 003d 3a89 0d3d a98d d43c
00000090: a46d c13c c88c 08bd a093 43bb 34b7 533d
000000a0: 6a48 e63d 1ca5 5c3d be37 e13d b9cb 3cbd
000000b0: 6b30 2d3e 2fc0 b6bd 12f5 453d c5e6 083d
000000c0: 1116 bcbc 82a7 523d c2f9 8ebc b6fb 8f3d
000000d0: fbf8 e5bd 4679 1a3d 85a7 283d bf2b 0a3c
000000e0: 6c18 5b3d d2b2 733a 17ea f23d a508 413e
000000f0: 2da4 1d3e a827 e93d d088 213e a343 c8bc

sequential_40/sequential_7/conv1d_8/BiasAdd/ReadVariableOp/resource f4 [64]
0.07673266 0.22332233 0.112319216 -0.034771506 -0.04312997 -0.059338044 0.110887304 0.00041582395
0.13370928 0.11121181 0.0284364 0.032364093 0.013032094 0.051911276 -0.032486968 0.032831438
0.019324832 0.032076698 0.118982695 0.16282085 -0.027703 0.0965861 0.112119846 0.003284894
0.23103796 0.12369474 0.15793851 0.065556735 0.0392865 0.07305208 0.22152543 0.058963995
0.10385978 0.15740152 0.17485294 0.16411994 -0.038353723 0.0023142297 0.14517319 0.16903952
0.16902825 0.09843292 0.16936822 0.013278273 0.19030079 0.15843922 0.14449051 0.15013075
0.15066099 0.043254223 0.11843291 0.047385853 0.031003227 -0.093659736 -0.004210707 0.11287114
0.01420786 -0.018315392 0.041645113 0.20156285 0.10578593 0.08709588 -0.007197456 0.29482254
00000000: 0326 9d3d 9cae 643e 9e07 e63d 916c 0ebd
00000010: 0da9 30bd 730c 73bd e218 e33d f202 da39
00000020: 16eb 083e 04c3 e33d 74f3 e83c 3690 043d
00000030: 9084 553c eba0 543d 0e11 05bd 427a 063d
00000040: 1c4f 9e3c db62 033d 33ad f33d 82ba 263e
00000050: 67f1 e2bc efce c53d 179f e53d 6047 573b
00000060: 3795 6c3e ab53 fd3d a2ba 213e 9c42 863d
00000070: e2ea 203d 549c 953d 90d7 623e 3b84 713d
00000080: 70b4 d43d dd2d 213e a60c 333e 0f0f 283e
00000090: cb18 1dbd 55aa 173b 48a8 143e b218 2d3e
000000a0: be15 2d3e 3397 c93d dd6e 2d3e 1d8d 593c
000000b0: 36de 423e e43d 223e 52f5 133e e0bb 193e
000000c0: e046 1a3e 572b 313d f48c f23d ab17 423d
000000d0: 7bfa fd3c add0 bfbd f8f9 89bb fc28 e73d
000000e0: 16c8 683c 290a 96bc 1194 2a3d 7e66 4e3e
000000f0: 4ba6 d83d 535f b23d a3d8 ebbb fbf2 963e

sequential_40/sequential_5/residual_2/sequential_4/conv1d_5/BiasAdd/ReadVariableOp/resource f4 [64]
0.0403937 -0.007960482 0.04279547 0.0031214834 0.015403027 0.032648716 0.020870164 0.034237582
0.08655023 0.061809544 -0.052405763 -0.02765876 0.043399595 -0.003227523 0.18334089 -0.0512382
0.017813686 0.13783717 0.00320044 0.068443716 0.08432472 0.053929783 0.18023495 -0.081236854
0.029139379 0.15372573 0.08492784 0.06183006 0.032757383 -0.027527817 0.013341017 -0.028348474
0.002773793 0.11922296 0.062193714 0.045541015 -0.025057847 0.10192547 0.17620435 3.978679e-06
0.040394254 0.22919236 -0.07873746 0.03416738 0.07144724 -0.030848661 0.10413928 0.010682659
0.058576424 0.08118244 0.087988034 0.016746609 0.13338745 -0.004280563 0.1489003 0.0984588
0.2067029 0.04645966 0.10382442 0.06639001 0.06146368 0.123760626 0.14845775 0.016883453
00000000: dd73 253d ae6c 02bc 4e4a 2f3d cd91 4c3b
00000010: fa5c 7c3c a9ba 053d e8f7 aa3c b53c 0c3d
00000020: 3f41 b13d 012c 7d3d 6da7 56bd a094 e2bc
00000030: c6c3 313d da84 53bb b7bd 3b3e 26df 51bd
00000040: 02ee 913c 3025 0d3e 79be 513b 382c 8c3d
00000050: 70b2 ac3d 7ae5 5c3d 838f 383e 825f a6bd
00000060: b5b5 ee3c 476a 1d3e a6ee ad3d 8441 7d3d
00000070: 9b2c 063d 0482 e1bc 4894 5a3c 0f3b e8bc
00000080: 86c8 353b 2b2b f43d d6be 7e3d 3789 3a3d
00000090: 1d46 cdbc 4dbe d03d ea6e 343e 9880 8536
000000a0: 7274 253d 67b1 6a3e 1b41 a1bd 18f3 0b3d
000000b0: ee52 923d 55b6 fcbc fa46 d53d 5206 2f3c
000000c0: d5ed 6f3d fb42 a63d 1233 b43d 2f30 893c
000000d0: b896 083e f743 8cbb 5279 183e c4a4 c93d
000000e0: eda9 533e 7c4c 3e3d e6a1 d43d 7cf7 873d
000000f0: 57c1 7b3d 3676 fd3d 4f05 183e 2b4f 8a3c

sequential_40/sequential_5/conv1d_6/BiasAdd/ReadVariableOp/resource f4 [64]
-0.13847415 -0.055588126 0.0048109284 0.26847324 0.11197332 0.091258846 0.15636611 -0.017973797
0.080653906 0.063955925 0.042372413 0.11886038 0.14031118 -0.029421838 0.16163509 0.022186518
0.03522465 0.068733335 0.06608512 0.18037589 0.011541641 0.122517146 0.025727937 0.1059007
0.046813674 0.058384687 0.052570224 0.19384955 0.011170277 0.014928282 0.12085068 0.13033153
0.0075664823 -0.08620285 -0.012967896 0.026379317 0.12931153 -0.006823019 0.111835554 0.17508353
-0.0062900777 0.007978938 0.16201581 0.15980425 0.011306093 -0.010043614 0.10679464 0.027826466
0.14067137 0.16776563 -0.06252793 0.04678479 0.10100123 -0.04062499 0.16628161 0.1998268
0.056822445 0.08424263 0.092301555 -0.07978042 0.08340068 0.057656374 0.042347323 0.14011249
00000000: 2bcc 0dbe 60b0 63bd fea4 9d3b 5375 893e
00000010: 4552 e53d ebe5 ba3d 701e 203e c93d 93bc
00000020: e02d a53d 53fb 823d b28e 2d3d 126d f33d
00000030: bcad 0f3e 1106 f1bc ab83 253e 80c0 b53c
00000040: b947 103d 10c4 8c3d a357 873d 75b4 383e
00000050: 2719 3d3c 45ea fa3d 65c3 d23c 77e2 d83d
00000060: b2bf 3f3d c824 6f3d e053 573d 7f80 463e
00000070: 8a03 373c c195 743c 9080 f73d a175 053e
00000080: 41f0 f73b 1f8b b0bd 4c77 54bc 7019 d83c
00000090: 3e6a 043e a293 dfbb 0a0a e53d 1949 333e
000000a0: ff1c cebb 17ba 023c 79e7 253e baa3 233e
000000b0: 313d 393c f88d 24bc 26b7 da3d 54f4 e33c
000000c0: 280c 103e c1ca 2b3e a50e 80bd 68a1 3f3d
000000d0: bcd9 ce3d 6466 26bd ba45 2a3e 669f 4c3e
000000e0: a7be 683d 6687 ac3d 9908 bd3d eb63 a3bd
000000f0: facd aa3d 1729 6c3d 6374 2d3d a679 0f3e

sequential_40/sequential_39/residual_19/sequential_38/conv1d_39/BiasAdd/ReadVariableOp/resource f4 [64]
0.337003 0.12436931 -0.058982268 -0.08089487 -0.051766384 0.07620061 0.085958675 0.106354445
-0.13214973 -0.0468201 0.012113301 0.023526192 0.06990137 -0.05482057 0.078486025 0.1347131
-0.13893788 -0.0004020092 -0.04144162 0.04572038 -0.007773898 -0.037609886 -0.1954149 -0.10102587
-0.034582265 0.0013796055 -0.090020485 -0.07535851 -0.1004734 -0.15661445 0.20962015 0.036205195
0.00723311 0.02257243 0.07531291 0.1356245 -0.042531334 -0.046375602 0.095512524 -0.1383692
0.14244102 -0.016762715 0.012693115 -0.0049406914 -0.031215006 -0.09980397 0.30018443 -0.13201275
-0.086242415 -0.06346276 0.024024883 -0.03628647 -0.12516806 0.00045355214 -0.039332442 -0.046140227
0.03187296 0.079664856 0.16025066 -0.081043996 -0.113628805 0.08836719 0.03990516 0.049547922
00000000: a88b ac3e 56b5 fe3d 6497 71bd 36ac a5bd
00000010: fd08 54bd 110f 9c3d 1a0b b03d 5cd0 d93d
00000020: 4252 07be 6fc6 3fbd de76 463c 00ba c03c
00000030: 7328 8f3d 898b 60bd 48bd a03d 3bf2 093e
00000040: bb45 0ebe c3c4 d2b9 b0be 29bd 4b45 3b3d
00000050: 2fbc febb d30c 1abd d81a 48be a7e6 cebd
00000060: 22a6 0dbd e1d3 b43a a95c b8bd 9055 9abd
00000070: ffc4 cdbd 8a5f 20be aaa6 563e e64b 143d
00000080: b903 ed3b d1e9 b83c a83d 9a3d 26e1 0a3e
00000090: 5635 2ebd 58f4 3dbd 129c c33d a8b0 0dbe
000000a0: 0fdc 113e f651 89bc c8f6 4f3c 86e5 a1bb
000000b0: 9db6 ffbc 0666 ccbd c6b1 993e 5a2e 07be
000000c0: dd9f b0bd c3f8 81bd d5cf c43c 1fa1 14bd
000000d0: 0e2c 00be bdca ed39 0e1b 21bd 89fd 3cbd
000000e0: 398d 023d 5427 a33d c018 243e 65fa a5bd
000000f0: 38b6 e8bd dbf9 b43d 9873 233d c3f2 4a3d

sequential_40/sequential_39/conv1d_40/BiasAdd/ReadVariableOp/resource f4 [64]
-0.03387531 0.16469058 -0.04618059 0.018689834 -0.012620632 0.037172806 -0.11712801 -0.08845951
0.0011192523 -0.13088769 0.25712436 -0.21032225 0.09855676 -0.064714365 -0.0033721393 -0.054291483
-0.13451532 -0.040019136 -0.0073279296 -0.07269112 -0.119073264 -0.08701501 -0.020873766 -0.0035879451
-0.0008931186 0.1216513 0.13916032 -0.11458715 -0.20123926 0.06865091 0.050353907 0.095869474
-0.013487278 0.32820404 0.0015291312 0.03964218 0.07481444 0.036893733 -0.0808244 -0.06708243
0.067100935 -0.03745792 0.14798038 0.026571319 -0.04661519 0.08314945 0.13085483 -0.084873475
0.060334925 0.065769576 -0.1237505 0.06906893 0.081012025 0.0064108176 -0.059530444 -0.030171828
0.0093280375 0.028853636 -0.018753335 0.14656183 -0.07185962 -0.052248977 0.18500614 0.048295274
00000000: d6c0 0abd a6a4 283e dc27 3dbd 6c1b 993c
00000010: c4c6 4ebc 8342 183d cfe0 efbd 422a b5bd
00000020: e0b3 923a 6c07 06be cea5 833e b75e 57be
00000030: 20d8 c93d f788 84bd 1cff 5cbb bf60 5ebd
00000040: 62be 09be 1beb 23bd 211f f0bb 15df 94bd
00000050: afdc f3bd ed34 b2bd 76ff aabc bb23 6bbb
00000060: 2d20 6aba 5124 f93d 0b80 0e3e abac eabd
00000070: aa11 4ebe d998 8c3d e63f 4e3d 3757 c43d
00000080: bef9 5cbc 5c0a a83e 216d c83a d75f 223d
00000090: 5038 993d e21d 173d 4387 a5bd 8362 89bd
000000a0: 376c 893d 7a6d 19bd 2b88 173e 18ac d93c
000000b0: 92ef 3ebd 424a aa3d cffe 053e 25d2 adbd
000000c0: c121 773d 33b2 863d e770 fdbd 0374 8d3d
000000d0: a2e9 a53d d611 d23b 32d6 73bd e92a f7bc
000000e0: a0d4 183c 765e ec3c 98a0 99bc 4e14 163e
000000f0: 232b 93bd 0603 56bd 4072 3d3e 44d1 453d

sequential_40/sequential_37/residual_18/sequential_36/conv1d_37/BiasAdd/ReadVariableOp/resource f4 [64]
-0.0042898334 0.11106217 -0.12292212 0.13024643 -0.03368011 0.10293606 -0.02114088 0.15774311
0.056406993 0.1759302 0.050598297 -0.04518382 -0.08236691 0.08227372 0.07693676 -0.010664812
0.16141938 0.13718776 0.05162913 0.18229897 -0.12288126 4.0852385e-05 0.085327305 0.0027617817
0.23202297 -0.012064385 -0.023887161 0.008316494 -0.033048905 -0.081810385 0.09669395 -0.026030142
-0.04544016 -0.030693239 0.062124778 0.13316728 0.23548569 -0.02692794 -0.0009922272 0.107509665
-0.078904934 -0.032634076 0.017382424 0.1065668 -0.0018046572 -0.05677152 0.055847295 0.07664363
0.05487873 0.16452087 -0.09881787 -0.07018563 0.21264176 0.04518235 0.04684669 -0.05438729
-0.08204717 0.11484484 0.23890792 -0.110752545 -0.050472327 -0.05348117 -0.10450949 0.09541618
00000000: bb91 8cbb 9074 e33d 98be fbbd 525f 053e
00000010: 28f4 09bd 24d0 d23d a42f adbc 6987 213e
00000020: 050b 673d 0c27 343e 2940 4f3d ab12 39bd
00000030: fcaf a8bd 207f a83d 0591 9d3d 77bb 2ebc
00000040: 1f4b 253e f37a 0c3e 1179 533d 95ac 3a3e
00000050: 2ca9 fbbd ea58 2b38 15c0 ae3d 02ff 343b
00000060: 6e97 6d3e b3a9 45bc 02af c3bc e741 083c
00000070: 4a5e 07bd 348c a7bd 7a07 c63d 2a3d d5bc
00000080: 761f 3abd 6370 fbbc 8d76 7e3d 015d 083e
00000090: 2923 713e fc97 dcbc 9f0d 82ba 072e dc3d
000000a0: e998 a1bd 4fab 05bd 9665 8e3c b23f da3d
000000b0: 3f8a ecba 4189 68bd 22c0 643d 56f7 9c3d
000000c0: 85c8 603d 2978 283e 0661 cabd 7cbd 8fbd
000000d0: c3be 593e 2111 393d 51e2 3f3d 35c5 5ebd
000000e0: 5908 a8bd c533 eb3d 47a4 743e 3bd2 e2bd
000000f0: 12bc 4ebd 120f 5bbd 1209 d6bd 8f69 c33d

sequential_40/sequential_37/conv1d_38/BiasAdd/ReadVariableOp/resource f4 [64]
0.021624863 0.13560386 0.01985909 0.066403076 -0.008174788 0.1709685 0.13094667 -0.020889543
0.032709643 -0.034631733 0.0965771 0.11012168 -0.03455247 0.099317394 -0.02881266 0.054450806
-0.015504338 0.024178267 -0.04671706 0.06607617 0.14210801 -0.048499275 0.14432137 -0.04078679
0.08179365 -0.09345408 0.1037058 0.038216837 -0.02180437 -0.02772643 -0.02163779 0.04059795
0.059517182 -0.09534188 -0.014913189 -0.0037114527 -0.10904298 0.1496363 0.17625506 0.0020190023
0.0965512 -0.041850213 -0.051341306 -0.006989277 -0.011161523 0.13924508 -0.1036743 -0.12948927
-0.049031932 -0.113946766 0.13400403 -0.0637197 -0.08449 -0.06441867 -0.0014862063 -0.005133236
0.0133667365 -0.072228864 0.01633721 0.06571959 0.09587357 0.18993367 0.11653196 -0.01919243
00000000: a026 b13c bddb 0a3e 88af a23c 56fe 873d
00000010: 8cef 05bc 5e12 2f3e e216 063e 8c20 abbc
00000020: 8cfa 053d 01da 0dbd 37ca c53d 7a87 e13d
00000030: e486 0dbd eb66 cb3d 8708 ecbc cf07 5f3d
00000040: e805 7ebc 8011 c63c 635a 3fbd f152 873d
00000050: c384 113e 2da7 46bd fbc8 133e 0d10 27bd
00000060: 6e83 a73d da64 bfbd b563 d43d 4289 1c3d
00000070: 149f b2bc 8a22 e3bc bc41 b1bc 094a 263d
00000080: 4ac8 733d 9b42 c3bd 7356 74bc d83b 73bb
00000090: ed51 dfbd 423a 193e 357c 343e 3d51 043b
000000a0: a3bc c53d 216b 2bbd 434b 52bd 4e06 e5bb
000000b0: d2de 36bc 4396 0e3e 3153 d4bd d698 04be
000000c0: b5d5 48bd ec5c e9bd 5a38 093e 797f 82bd
000000d0: 1809 adbd f0ed 83bd cfcc c2ba b434 a8bb
000000e0: 2800 5b3c baec 93bd 9dd5 853c fe97 863d
000000f0: 5d59 c43d f97d 423e 4fa8 ee3d 7139 9dbc

sequential_40/sequential_35/residual_17/sequential_34/conv1d_35/BiasAdd/ReadVariableOp/resource f4 [64]
-0.0012318142 0.14378442 0.021470413 0.04554619 -0.006602692 -0.029983824 0.13509731 0.069585174
-0.14577173 -0.009042882 0.00033735196 0.17875133 0.038580835 0.09672064 0.14540057 -0.12072021
0.08218674 0.08754704 0.06619125 0.02948829 -0.03300782 -0.04442118 0.059412885 0.12057418
0.025369452 0.09623797 0.07264339 -0.0884375 0.27549824 0.015897129 0.013106241 -0.005803541
0.106166385 0.006242374 -0.012164333 0.06432642 0.13022913 -0.03844048 0.052922655 0.068272926
-0.033638567 0.0827743 0.08377249 0.034456078 0.101729214 0.051858854 0.037254732 0.004208033
0.04539282 0.14410645 0.08296076 0.0762658 0.07481964 0.0034779902 0.029645829 0.043374598
0.22963907 0.011952063 0.08124539 0.003286733 0.12054632 0.096765205 0.17084396 0.10619332
00000000: d374 a1ba 393c 133e b8e2 af3c a48e 3a3d
00000010: 655b d8bb a3a0 f5bc f356 0a3e ac82 8e3d
00000020: 2f45 15be 9928 14bc 9dde b039 970a 373e
00000030: f006 1e3d 7915 c63d e3e3 143e 283c f7bd
00000040: 8651 a83d dd4b b33d 478f 873d 6d91 f13c
00000050: 3533 07bd fcf2 35bd ed5a 733d 98ef f63d
00000060: 99d3 cf3c 6a18 c53d 0fc6 943d b81e b5bd
00000070: 1b0e 8d3e b23a 823c 8fbb 563c a12b bebb
00000080: c36d d93d d48c cc3b e94c 47bc 92bd 833d
00000090: c95a 053e c473 1dbd 6dc5 583d add2 8b3d
000000a0: 98c8 09bd 9285 a93d e990 ab3d d121 0d3d
000000b0: 6857 d03d f369 543d 6b98 183d 8ae3 893b
000000c0: d2ed 393d a490 133e 55e7 a93d 3e31 9c3d
000000d0: 0a3b 993d feee 633b cfdb f23c 90a9 313d
000000e0: 8126 6b3e 96d2 433c fc63 a63d 3b66 573b
000000f0: fde0 f63d d62c c63d b8f1 2e3e e27b d93d

sequential_40/sequential_35/conv1d_36/BiasAdd/ReadVariableOp/resource f4 [64]
0.17864631 -0.08486777 0.23702012 0.013066828 0.18958637 -0.064779066 0.040295217 0.02800686
0.14329492 0.00018146579 0.08437582 0.04359857 -0.025460463 -0.024465434 0.045487367 0.05208816
0.107404515 -0.012145228 0.17944445 -0.1379043 -0.008626479 0.09679197 0.26748028 0.055808183
-0.034364745 0.050283946 -0.011047555 0.08694962 0.047261577 0.0048622373 0.035402857 0.093878634
0.04745493 0.08297866 0.18731001 0.044818725 -0.0030489308 0.15732358 0.090595536 0.07471211
0.11977189 0.12676989 0.0449228 0.1475781 0.022969728 -0.0067136497 -0.030092599 0.18177208
-0.0028140566 -0.043404493 0.07102248 0.19011426 0.044827443 -0.06536571 -0.070562385 0.06690996
0.042244103 0.113028534 -0.051395833 0.021581177 0.051931344 -0.0807764 0.090541475 0.17576163
00000000: 0fef 363e 27cf adbd 67b5 723e 4016 563c
00000010: ee22 423e e3aa 84bd 990c 253d a46e e53c
00000020: e7bb 123e da47 3e39 3bcd ac3d 6a94 323d
00000030: 7692 d0bc bc6b c8bc f650 3a3d 655a 553d
00000040: e6f6 db3d c7fc 46bc 49c0 373e c936 0dbe
00000050: 1356 0dbc de3a c63d 2df3 883e 1f97 643d
00000060: 0cc2 0cbd 8af6 4d3d ce00 35bc a412 b23d
00000070: 5b95 413d 6753 9f3b 9602 113d 7143 c03d
00000080: 1a60 423d b7f0 a93d 32ce 3f3e d793 373d
00000090: 92d0 47bb 6f19 213e 278a b93d aa02 993d
000000a0: f74a f53d f7cf 013e f800 383d b71e 173e
000000b0: 032b bc3c 2dfe dbbb c184 f6bc 7622 3a3e
000000c0: 096c 38bb e9c8 31bd 3c74 913d 50ad 423e
000000d0: fb9c 373d 75de 85bd 0383 90bd 1708 893d
000000e0: 2708 2d3d 817b e73d 7084 52bd 02cb b03c
000000f0: f6b5 543d 196e a5bd cf6d b93d dbfa 333e

sequential_40/sequential_33/residual_16/sequential_32/conv1d_33/BiasAdd/ReadVariableOp/resource f4 [64]
-0.02002019 0.13248582 -0.070619814 -0.055033 0.017578892 -0.03430011 -0.030029038 -0.07660391
-0.0015118972 0.19389956 -0.027450109 0.046513397 -0.010771016 0.026730245 0.098314635 0.046280023
0.054334424 0.027860228 0.104149684 -0.02709042 -0.014294777 0.12789531 0.10513367 0.092247605
0.00936496 0.023608595 -0.059903353 0.17813131 0.01582248 -0.004152028 0.16749199 0.015149139
0.064029075 -0.018292842 0.007349453 0.053163763 -0.0037118196 0.030981276 0.053657748 0.090724565
0.12502283 -0.04457251 -0.13252193 -0.0081975665 -0.06320176 0.03448428 0.03286082 0.22168355
0.08056541 -0.010838532 0.09866317 0.08494334 0.11927203 -0.031157194 0.005627737 0.11197079
0.061084002 0.1777723 0.073508814 0.060944818 0.14985906 0.014837099 -0.006889396 0.12660635
00000000: 6201 a4bc 5daa 073e 1fa1 90bd 486a 61bd
00000010: 9c01 903c 467e 0cbd 75ff f5bc 83e2 9cbd
00000020: da2a c6ba 9b8d 463e 0ddf e0bc d584 3e3d
00000030: ea78 30bc 63f9 da3c 2f59 c93d 1f90 3d3d
00000040: c68d 5e3d 223b e43c 6e4c d53d baec ddbc
00000050: a434 6abc fdf6 023e 5250 d73d 50ec bc3d
00000060: 7d6f 193c d066 c13c 385d 75bd 0e68 363e
00000070: 259e 813c bc0d 88bb 0583 2b3e 1834 783c
00000080: ad21 833d dfda 95bc aed3 f03b 3fc2 593d
00000090: 0042 73bb 72cc fd3c 3ac8 5b3d cdcd b93d
000000a0: fc05 003e aa91 36bd d4b3 07be 164f 06bc
000000b0: ed6f 81bd 633f 0d3d 1199 063d 0301 633e
000000c0: 7aff a43d 1994 31bc eb0f ca3d c6f6 ad3d
000000d0: e544 f43d 5f3d ffbc e168 b83b f150 e53d
000000e0: 3833 7a3d f109 363e ca8b 963d 46a1 793d
000000f0: a774 193e 4e17 733c 71c0 e1bb 18a5 013e

sequential_40/sequential_33/conv1d_34/BiasAdd/ReadVariableOp/resource f4 [64]
0.06140964 0.090009466 0.08869992 0.1780165 0.15235128 0.054465055 -0.011409687 0.05172905
-0.114576645 0.049903505 0.08990112 0.0460585 0.055590305 -0.040259544 0.04090727 -0.05148976
0.058121897 -0.013066938 -0.060346078 0.04071304 0.044650964 0.023353731 0.08828679 0.031227952
0.13621382 0.13662767 0.11061045 0.022214908 0.09588369 -0.06594644 0.09599172 0.13675587
0.1809597 0.109762676 -0.041852556 0.0761769 0.120832235 0.004233969 0.1314479 0.0133406
-0.008280835 0.042907864 0.016517323 0.032859545 -0.08151897 -0.002886043 -0.0281577 0.07713395
0.051041707 -0.00202193 0.25428274 0.057605263 -0.080501206 -0.0335763 0.13262196 0.037917674
0.122778974 0.1648059 0.003341184 0.06493469 0.035161704 0.08029084 -0.046965383 0.26049986
00000000: ad88 7b3d e256 b83d 4ea8 b53d f549 363e
00000010: f901 1c3e c016 5f3d b2ef 3abc d7e1 533d
00000020: 29a7 eabd 9e67 4c3d 141e b83d d6a7 3c3d
00000030: a9b2 633d 31e7 24bd 628e 273d ede6 52bd
00000040: 3a11 6e3d b616 56bc 732d 77bd b7c2 263d
00000050: eee3 363d 5350 bf3c b4cf b43d c3d1 ff3c
00000060: a37b 0b3e 20e8 0b3e bb87 e23d 0afc b53c
00000070: ab5e c43d ed0e 87bd 4f97 c43d bb09 0c3e
00000080: 804d 393e 41cb e03d 966d 2bbd a202 9c3d
00000090: e476 f73d 1bbd 8a3b 479a 063e 8892 5a3c
000000a0: 57ac 07bc 28c0 2f3d 564f 873c bb97 063d
000000b0: 6bf3 a6bd c423 3dbb faaa e6bc 68f8 9d3d
000000c0: 1c11 513d 5b82 04bb 5931 823e 7ff3 6b3d
000000d0: d1dd a4bd 4d87 09bd 0dce 073e 904f 1b3d
000000e0: 8b73 fb3d e1c2 283e c4f7 5a3b 7bfc 843d
000000f0: b805 103d 866f a43d c65e 40bd 3d60 853e

sequential_40/sequential_31/residual_15/sequential_30/conv1d_31/BiasAdd/ReadVariableOp/resource f4 [64]
-0.008821184 0.014438163 -0.062905945 0.04377715 0.08601572 0.13055338 0.17691883 -0.079937585
0.0127513725 0.14045158 0.056118757 -0.0036385385 0.12320406 0.0055401158 -0.07063359 0.07537072
0.07239684 0.15754782 0.040837005 0.12979297 -0.099376544 0.09145493 0.14773788 0.12765333
-0.08745875 0.18718624 -0.011682048 -0.116513774 -0.035553895 0.17795844 0.0003270004 0.104092166
0.10122869 0.14859731 0.13259456 0.072334446 0.015889566 -0.0015155145 0.046006557 0.0146282
0.05127654 0.17108046 0.19095112 0.12945908 0.15310434 0.17231262 0.13099748 0.1396642
0.04057195 0.059079576 0.06636775 0.084746495 0.0823832 0.09379153 -0.054886427 0.14791158
-0.004748103 -0.087504275 0.069263674 0.09571847 0.010179257 0.13332881 0.027186798 0.011400988
00000000: ba86 10bc 0b8e 6c3c d5d4 80bd ab4f 333d
00000010: 0329 b03d c9af 053e 362a 353e 51b6 a3bd
00000020: 22eb 503c 8ad2 0f3e c8dc 653d 8c74 6ebb
00000030: 6952 fc3d dc89 b53b 58a8 90bd f75b 9a3d
00000040: cb44 943d 3754 213e b444 273d 73e8 043e
00000050: ee85 cbbd b94c bb3d 9948 173e 8eb7 023e
00000060: 931d b3bd c0ad 3f3e 1066 3fbc c69e eebd
00000070: f6a0 11bd bd3a 363e 4071 ab39 462e d53d
00000080: fd50 cf3d e529 183e dec6 073e 1524 943d
00000090: d62a 823c 3aa4 c6ba 5f71 3c3d 1eab 6f3c
000000a0: 5907 523d b72f 2f3e b188 433e ec90 043e
000000b0: 62c7 1c3e b872 303e 3424 063e 2204 0f3e
000000c0: c62e 263d 6dfd 713d d1eb 873d 928f ad3d
000000d0: 86b8 a83d c615 c03d 97d0 60bd 2276 173e
000000e0: fa95 9bbb 7135 b3bd 1dda 8d3d 0c08 c43d
000000f0: e6c6 263c 5987 083e d9b6 de3c 36cb 3a3c

sequential_40/sequential_31/conv1d_32/BiasAdd/ReadVariableOp/resource f4 [64]
0.026660219 0.10520214 -0.005850077 0.034441553 0.13140911 0.021359114 0.072741635 -0.026653184
0.02770014 -0.018670142 -0.059626535 -0.023576468 0.12799793 0.0798308 0.22291823 0.04320819
0.17972279 -0.04311623 0.087594345 0.07400881 0.020974021 -0.17075308 0.16059156 0.15564375
0.27516612 0.10249984 0.07833981 0.001989443 0.092733406 0.02985726 0.033212267 0.013472594
0.13340403 0.03887194 0.01580552 -0.08680316 0.057940967 0.0043846145 0.024015758 0.17649841
0.09552466 0.10069564 0.09292556 0.09034239 0.026624937 0.03593181 0.06746944 0.16926976
0.13089482 0.12124686 0.12428474 0.24189669 0.12331912 -0.05155135 0.27234337 0.092978165
-0.10107257 0.1664425 0.14487141 0.014113749 0.07628844 0.107616216 0.1789357 0.0088089695
00000000: 8866 da3c 3874 d73d 01b2 bfbb 9612 0d3d
00000010: 1c90 063e 4ff9 ae3c 91f9 943d c757 dabc
00000020: 67eb e23c 20f2 98bc f43a 74bd 7023 c1bc
00000030: e411 033e 557e a33d ad44 643e 12fb 303d
00000040: 4009 383e a59a 30bd aa64 b33d ee91 973d
00000050: b6d1 ab3c e5d9 2ebe 1d72 243e 1361 1f3e
00000060: 93e2 8c3e 70eb d13d 9f70 a03d 5161 023b
00000070: 03eb bd3d 3697 f43c 9609 083d 28bc 5c3c
00000080: 119b 083e 2f38 1f3d 947a 813c dbc5 b1bd
00000090: 8253 6d3d d0ac 8f3b b2bc c43c 00bc 343e
000000a0: 6fa2 c33d 8439 ce3d c24f be3d 6e05 b93d
000000b0: 8a1c da3c 3c2d 133d 6b2d 8a3d 0d55 2d3e
000000c0: 4b09 063e 4650 f83d ff88 fe3d c4b3 773e
000000d0: bc8e fc3d 8227 53bd 9770 8b3e 566b be3d
000000e0: 23ff cebd e76f 2a3e 2c59 143e 5b3d 673c
000000f0: 1d3d 9c3d e465 dc3d ec3a 373e 7f53 103c

sequential_40/sequential_3/residual_1/sequential_2/conv1d_3/BiasAdd/ReadVariableOp/resource f4 [64]
0.17065942 -0.010974702 -0.000817868 0.119963594 0.056080848 0.18240835 0.13320138 0.1642599
0.061371446 0.08664646 0.050915193 0.010254763 0.05821605 0.1609109 0.05565202 -0.0133291725
0.10398662 0.158491 0.14844036 0.08946831 0.04017384 0.25005767 -0.16453132 0.101057485
0.07376115 0.10801421 0.113042064 0.064844176 -0.020148233 0.13306335 0.109778166 0.1496819
0.05327041 0.113026574 0.10190327 0.018121649 0.10373341 0.033195052 0.09200211 0.14333288
-0.095955886 0.018128224 -0.045584477 0.24168703 0.035675645 -0.072538644 0.018239085 0.09292521
-0.09853918 0.13045971 -0.040462192 0.13072519 0.13943484 0.13568373 0.019697642 -0.022078743
0.13238385 0.048514288 0.037198357 0.11088383 0.15068772 0.028234247 0.08146309 0.16029547
00000000: 58c1 2e3e 3dcf 33bc 3166 56ba 79af f53d
00000010: 08b5 653d 41c9 3a3e f165 083e bf33 283e
00000020: a060 7b3d b373 b13d 738c 503d 9803 283c
00000030: f473 6e3d d4c5 243e 5ff3 633d 9a62 5abc
00000040: f0f6 d43d 774b 223e c000 183e 293b b73d
00000050: 538d 243d 8f07 803e e67a 28be 3af7 ce3d
00000060: 1610 973d 8e36 dd3d 9982 e73d 06cd 843d
00000070: e80d a5bc c241 083e 60d3 e03d 3646 193e
00000080: 1332 5a3d 7a7a e73d a9b2 d03d da73 943c
00000090: 2f72 d43d 89f7 073d 9a6b bc3d dbc5 123e
000000a0: 8584 c4bd a481 943c cab6 3abd ce7c 773e
000000b0: a020 123d 248f 94bd 226a 953c 934f be3d
000000c0: e9ce c9bd 3b97 053e afbb 25bd d3dc 053e
000000d0: 02c8 0e3e adf0 0a3e f35c a13c 7bde b4bc
000000e0: a28f 073e ebb6 463d 4e5d 183d 1017 e33d
000000f0: e24d 1a3e 824b e73c 1fd6 a63d 7f24 243e

sequential_40/sequential_3/conv1d_4/BiasAdd/ReadVariableOp/resource f4 [64]
0.110545024 -0.03291426 0.11798385 0.11912656 0.09941636 0.13288869 0.16369218 0.23823841
-0.009231141 0.03566086 0.046774175 0.16898903 0.024933072 0.21182723 0.104510434 -0.010263768
0.09900362 0.09012679 0.25038603 0.0072337 0.1047198 -0.07565764 -0.004858723 0.02530846
0.10740998 0.15133978 0.041562468 0.050412785 0.09462973 0.07188634 0.19568819 0.14272836
0.2756306 0.04812222 -0.08251432 0.14686212 0.1735578 0.04950942 0.17034863 0.07700164
0.18505065 0.19451065 0.27208436 0.21382026 0.10302334 0.06520271 -0.03226511 0.089282945
0.047352206 0.010811331 0.065917626 0.010612248 0.1427597 0.17893898 -0.03917215 0.06753325
0.076201595 0.24986054 0.117766924 -0.13682388 0.22975393 0.14331312 -0.0027734824 0.14839487
00000000: 6e65 e23d 1ad1 06bd 84a1 f13d a0f8 f33d
00000010: ce9a cb3d f913 083e ec9e 273e c5f4 733e
00000020: 363e 17bc 1f11 123d 4796 3f3d 760b 2d3e
00000030: 7140 cc3c 3de9 583e 9109 d63d 5d29 28bc
00000040: 69c2 ca3d 6594 b83d 9932 803e ac08 ed3b
00000050: 5677 d63d 65f2 9abd ec35 9fbb b053 cf3c
00000060: c3f9 db3d d1f8 1a3e 683d 2a3d a37d 4e3d
00000070: 3bcd c13d 2539 933d 7c62 483e 6227 123e
00000080: 741f 8d3e ce1b 453d 45fd a8bd 0663 163e
00000090: 23b9 313e 64ca 4a3d df6f 2e3e 09b3 9d3d
000000a0: eb7d 3d3e cd2d 473e a44e 8b3e b3f3 5a3e
000000b0: e7fd d23d 0089 853d 6c28 04bd fad9 b63d
000000c0: 63f4 413d 0222 313c d2ff 863d ffde 2d3c
000000d0: 992f 123e c83b 373e fa72 20bd df4e 8a3d
000000e0: 950f 9c3d 71db 7f3e c92f f13d 8f1b 0cbe
000000f0: 9d44 6b3e adc0 123e 50c3 35bb d3f4 173e

sequential_40/sequential_29/residual_14/sequential_28/conv1d_29/BiasAdd/ReadVariableOp/resource f4 [64]
-0.0825167 0.071741104 0.044643506 0.09435284 0.09074067 0.04635182 0.0951362 0.15932694
0.068983264 0.009940216 -0.11042346 -0.010849412 0.042368013 -0.013727553 -0.068176195 0.2632653
0.088482484 0.18242647 0.06537322 -0.021980016 -0.12450157 0.050993603 0.056447428 0.06389697
0.10102571 -0.0073654363 0.1596833 0.027041689 0.06558501 -0.09390273 0.10914741 0.02452889
0.093579784 0.06059818 0.05047849 0.08719775 -0.027082002 -0.050370682 0.02316048 0.02208535
0.079442166 0.03623307 0.079815045 -0.14203927 -0.01858153 0.113187805 0.16506863 0.033056077
0.012213252 0.06804961 0.020520533 0.017610008 0.0033629725 0.08800021 -0.020442417 0.014528787
0.061719462 -0.033523064 -0.018147472 0.055814914 -0.046112165 -0.071287245 0.05234765 0.18275835
00000000: 84fe a8bd 00ed 923d 1cdc 363d 103c c13d
00000010: 3fd6 b93d 68db 3d3d c5d6 c23d 9a26 233e
00000020: 1947 8d3d 4adc 223c b225 e2bd bbc1 31bc
00000030: 158a 2d3d 88e9 60bc f69f 8bbd b6ca 863e
00000040: 4e36 b53d 01ce 3a3e 65e2 853d 6f0f b4bc
00000050: aefa febd abde 503d 6b35 673d 6adc 823d
00000060: 91e6 ce3d c259 f1bb 0584 233e 8886 dd3c
00000070: 6f51 863d 1350 c0bd ad88 df3d d0f0 c83c
00000080: c2a6 bf3d cc35 783d 88c2 4e3d bc94 b23d
00000090: 13db ddbc 7d51 4ebd 0cbb bd3c 56ec b43c
000000a0: 93b2 a23d 2169 143d 1276 a33d be72 11be
000000b0: 4b38 98bc 02cf e73d c007 293e cf65 073d
000000c0: 171a 483c 985d 8b3d ad1a a83c dd42 903c
000000d0: 5165 5c3b 7439 b43d db76 a7bc 260a 6e3c
000000e0: 8ccd 7c3d 7b4f 09bd 02aa 94bc 2e9e 643d
000000f0: 1ce0 3cbd 0cff 91bd 7d6a 563d 0125 3b3e

sequential_40/sequential_29/conv1d_30/BiasAdd/ReadVariableOp/resource f4 [64]
0.098287515 0.14217967 0.060572643 0.029970715 0.06696804 0.09611382 0.028662024 0.17748557
0.1261654 0.054825343 0.072106935 0.07723686 -0.04328281 0.035602674 0.06899229 -0.06461704
0.0437436 0.12724069 0.010832913 0.098637745 -0.041427784 -0.013720875 0.08604747 0.058588326
0.1695224 0.029503904 0.03655602 0.00010033182 0.054811977 0.038377527 0.018638195 0.13764134
0.11436504 -0.00363772 0.12116638 0.028718354 0.10732687 -0.057450574 0.040003788 0.03545897
0.06861306 0.08113188 0.107521996 0.104039505 -0.0016504375 0.031690452 0.049322832 0.02777126
-0.03513911 0.13947573 0.054396152 0.08870578 0.0838912 0.12211918 0.052786365 0.087951876
0.100026 0.052578002 0.0013176376 -0.0024773206 0.058723114 0.123121604 0.07454348 0.052271
00000000: f74a c93d 8c97 113e 051b 783d 2585 f53c
00000010: 8a26 893d 53d7 c43d 9fcc ea3c c7be 353e
00000020: 8131 013e 8a90 603d cdac 933d 5c2e 9e3d
00000030: 5149 31bd 1cd4 113d d44b 8d3d f055 84bd
00000040: 7d2c 333d 624b 023e 887c 313c 9602 ca3d
00000050: 2eb0 29bd 85cd 60bc a839 b03d 50fa 6f3d
00000060: 4897 2d3e 2cb2 f13c c4bb 153d 3c69 d238
00000070: 8682 603d c131 1d3d 21af 983c daf1 0c3e
00000080: 3838 ea3d d066 6ebb 1426 f83d c142 eb3c
00000090: 31ce db3d 4b51 6bbd 03db 233d 6d3d 113d
000000a0: 0185 8c3d 7928 a63d 7e34 dc3d aa12 d53d
000000b0: 7e53 d8ba d9cd 013d bd06 4a3d 8e80 e33c
000000c0: 07ee 0fbd bad2 0e3e 80ce 5e3d 60ab b53d
000000d0: 26cf ab3d 9f19 fa3d 8436 583d 1d20 b43d
000000e0: 6eda cc3d 085c 573d 95b4 ac3a 8b5a 22bb
000000f0: a687 703d 2e27 fc3d 41aa 983d 1e1a 563d

sequential_40/sequential_27/residual_13/sequential_26/conv1d_27/BiasAdd/ReadVariableOp/resource f4 [64]
0.20461293 0.12639561 -0.0032824061 -0.020510979 0.050034083 0.14373949 -0.08707426 -0.03216208
-0.057121396 0.043189153 0.05178102 0.054684527 0.109262735 0.0692607 0.12529826 0.01784972
0.070667185 0.016793374 0.06041362 -0.0727129 -0.0710168 0.17453483 0.0047208034 0.0466793
0.024430973 0.02044249 0.043358184 0.04200171 0.07993822 0.012738168 -0.13926998 -0.03312134
0.05352963 -0.025759272 0.092616074 0.08229444 0.0470616 0.0137836095 0.018000785 0.0031686088
0.0630231 0.11634115 0.037170466 -0.05650702 0.10948064 0.0819351 -0.048172645 0.004023377
0.081015505 -0.07647852 -0.07100687 -0.021077348 0.078560926 0.14648598 -0.009013321 -0.027253447
0.09783944 -0.009350655 -0.049830563 0.053534124 -0.0114573985 0.021555956 0.0075636217 0.030400021
00000000: 0d86 513e da6d 013e a31d 57bb a406 a8bc
00000010: 8af0 4c3d 7230 133e fd53 b2bd 63bc 03bd
00000020: 20f8 69bd 1ce7 303d 5618 543d e2fc 5f3d
00000030: 24c5 df3d 8ed8 8d3d 304e 003e 9339 923c
00000040: f5b9 903d 4292 893c 4674 773d 80ea 94bd
00000050: 4271 91bd 42b9 323e f8b0 9a3b cb32 3f3d
00000060: 7723 c83c 0277 a73c 5a98 313d fc09 2c3d
00000070: a6b6 a33d c0b3 503c ca9c 0ebe 3eaa 07bd
00000080: e341 5b3d 1c05 d3bc 7fad bd3d fd89 a83d
00000090: aac3 403d a6d4 613c 6276 933c 6fa8 4f3b
000000a0: 4112 813d 4544 ee3d 0f40 183d e873 67bd
000000b0: 6337 e03d 97cd a73d ae50 45bd 88d6 833b
000000c0: 75eb a53d c5a0 9cbd 0d6c 91bd 67aa acbc
000000d0: 8de4 a03d 6c00 163e 9cac 13bc 9f42 dfbc
000000e0: 0b60 c83d 7d33 19bc 221b 4cbd 9946 5b3d
000000f0: d0b7 3bbc 1e96 b03c 42d8 f73b 7709 f93c

sequential_40/sequential_27/conv1d_28/BiasAdd/ReadVariableOp/resource f4 [64]
0.023082381 0.12680757 0.032838047 -0.0559525 0.1253726 0.090551935 0.14485456 0.04137835
0.14584795 0.057395156 -0.0028692666 0.018511668 0.1268104 -0.022105282 0.08004066 0.03035557
-0.00089445733 0.34845924 0.070725314 -0.014715208 -0.034741856 0.02529938 0.087183684 0.114342354
-0.015255306 0.08982491 0.12528901 0.076387174 0.09448568 -0.07064727 0.05709935 0.001088645
0.058337733 0.072941594 0.068772174 -0.0019812535 0.13391256 0.18902086 0.14381552 0.10952296
0.07722731 -0.021937158 0.08254023 0.07877986 -0.050305396 0.030571122 -0.15432 0.058421616
0.046148505 0.2122159 0.026521824 0.11460556 -0.03319392 0.21028258 -0.11697164 0.12361582
0.035285696 0.11045867 0.014498782 0.012522368 0.16934398 -0.021879511 0.07601704 0.21459822
00000000: 4317 bd3c d8d9 013e 3081 063d 732e 65bd
00000010: ad61 003e 4b73 b93d c154 143e 587c 293d
00000020: 2a59 153e 2f17 6b3d 4e0a 3cbb c8a5 973c
00000030: 96da 013e 2316 b5bc 5cec a33d 3fac f83c
00000040: 047a 6aba 4069 b23e 6fd8 903d 0e18 71bc
00000050: 7a4d 0ebd a540 cf3c 5c8d b23d 532c ea3d
00000060: 64f1 79bc 1ff6 b73d c34b 003e e170 9c3d
00000070: b581 c13d 84af 90bd 02e1 693d ddb0 8e3a
00000080: 8cf3 6e3d 6762 953d 6dd8 8c3d ebd7 01bb
00000090: 6020 093e af8e 413e 6044 133e 934d e03d
000000a0: 5a29 9e3d 8eb5 b3bc da0a a93d 5657 a13d
000000b0: 080d 4ebd 4a70 fa3c 1006 1ebe 814b 6f3d
000000c0: 3706 3d3d 204f 593e 4c44 d93c 52b6 ea3d
000000d0: 59f6 07bd 5154 573e d48e efbd 4b2a fd3d
000000e0: bc87 103d 2838 e23d 4d8c 6d3c 9e2a 4d3c
000000f0: 8268 2d3e a93c b3bc d2ae 9b3d a3bf 5b3e

sequential_40/sequential_25/residual_12/sequential_24/conv1d_25/BiasAdd/ReadVariableOp/resource f4 [64]
0.07994728 0.21118394 0.1517815 0.046172883 0.109309144 0.081991665 -0.040212438 0.12412491
0.041664124 0.11403315 -0.0031085005 -0.011155124 0.10565626 -0.02546045 0.079862274 0.097159095
0.07286444 0.14527111 0.010439872 0.086170934 0.14348912 0.053024806 -0.08444084 0.13853468
0.06837579 0.10042605 0.18529163 -0.0060228007 0.03581886 -0.09938401 -0.037713803 -0.023094127
0.0029179745 0.0360856 -0.073786646 0.006672365 0.23428701 0.1982532 0.041707415 -0.07710272
0.09659836 0.17825523 0.062720776 0.07033282 0.08583316 0.041398477 0.0155563345 0.08823824
-0.028978813 0.06558045 0.10226832 0.073083684 0.077556744 0.05048193 0.06631571 -0.06973335
0.049610525 0.061468743 0.08493638 0.018651122 0.0059956806 0.1614019 0.0763884 0.12718093
00000000: 66bb a33d 9a40 583e 9c6c 1b3e c71f 3d3d
00000010: 79dd df3d 3feb a73d ccb5 24bd 3335 fe3d
00000020: 00a8 2a3d 368a e93d fcb7 4bbb fbc3 36bc
00000030: 4f62 d83d 6f92 d0bc d58e a33d 59fb c63d
00000040: f439 953d f3c1 143e ff0b 2b3c 637a b03d
00000050: d0ee 123e 8a30 593d 52ef acbd 09dc 0d3e
00000060: 9b08 8c3d 2cac cd3d 17bd 3d3e ea5a c5bb
00000070: ccb6 123d d889 cbbd ca79 1abd e52f bdbc
00000080: 7d3b 3f3b 7ece 133d 741d 97bd dba3 da3b
00000090: efe8 6f3e e302 4b3e 65d5 2a3d 08e8 9dbd
000000a0: 5cd5 c53d 8a88 363e c073 803d a70a 903d
000000b0: 4cc9 af3d 7391 293d ffdf 7e3c 40b6 b43d
000000c0: fa64 edbc 0b4f 863d 0e72 d13d e6ac 953d
000000d0: 12d6 9e3d 24c6 4e3d 88d0 873d 5cd0 8ebd
000000e0: 6834 4b3d a6c6 7b3d 20f3 ad3d 3dca 983c
000000f0: 6a77 c43b 8a46 253e 8571 9c3d b83b 023e

sequential_40/sequential_25/conv1d_26/BiasAdd/ReadVariableOp/resource f4 [64]
0.015149498 0.107266605 0.040704556 0.035789095 0.0038535711 0.12751588 -0.012873998 -0.06886965
-0.009859763 0.11251146 0.008587572 -0.08772676 0.24860631 0.043007385 0.12285624 0.026525388
0.017225575 0.020489182 -0.07913343 0.09746452 0.038859013 0.16630004 0.16354316 0.06444467
0.035687298 -0.00789126 -0.016564127 0.12769397 -0.104067616 0.019082444 0.20134516 0.042575374
-0.023895107 0.0811802 0.12338634 0.07401023 0.18183248 0.1015709 0.27086225 0.014893377
0.11124541 0.09406445 0.0813173 -0.044594213 0.14117058 0.10242587 -0.031992353 0.25987765
-0.009057221 0.11887992 -0.025244165 -0.1260745 0.067655616 0.105619125 0.15053283 0.12061727
0.13793384 0.023530245 -0.055784762 0.10335103 -0.080487765 -0.026344405 0.01736412 0.20863415
00000000: 9a35 783c 98ae db3d d2b9 263d 9697 123d
00000010: 328c 7c3b 8693 023e 76ed 52bc 880b 8dbd
00000020: d88a 21bc 696c e63d e3b2 0c3c 16aa b3bd
00000030: a792 7e3e 8328 303d 0d9c fb3d c54b d93c
00000040: a61c 8d3c eed8 a73c b510 a2bd 7a9b c73d
00000050: a12a 1f3d 8f4a 2a3e dc77 273e 91fb 833d
00000060: d82c 123d 584a 01bc 7eb1 87bc 35c2 023e
00000070: 6721 d5bd c952 9c3c 6d2d 4e3e 8463 2e3d
00000080: acbf c3bc ce41 a63d fab1 fc3d ad92 973d
00000090: 4b32 3a3e 6704 d03d 75ae 8a3e 5a03 743c
000000a0: a2d4 e33d dda4 c03d af89 a63d 6ca8 36bd
000000b0: 058f 103e a8c4 d13d 6a0a 03bd af0e 853e
000000c0: bd64 14bc 5177 f33d dacc cebc ac19 01be
000000d0: 078f 8a3d d74e d83d 4725 1a3e 3006 f73d
000000e0: 873e 0d3e 80c2 c03c 907e 64bd b4a9 d33d
000000f0: c5d6 a4bd 39d0 d7bc 333f 8e3c 31a4 553e

sequential_40/sequential_23/residual_11/sequential_22/conv1d_23/BiasAdd/ReadVariableOp/resource f4 [64]
0.040934872 0.12373135 0.044726893 0.046388995 0.005630564 0.06644424 0.037876725 0.081489444
0.2025992 0.045167867 -0.13521712 0.14880756 0.066370524 0.01655907 0.08531161 -0.045022435
0.03207678 0.0071703466 -0.007835624 0.040114414 0.08003518 0.016525028 0.040363993 0.14849643
0.0037311118 0.04400831 0.016522516 0.14944251 -0.0076162447 0.039798036 0.024038473 -0.09099246
0.026175296 0.07190036 0.036318243 -0.026026152 -0.08366192 0.011866745 0.15713684 0.08610065
0.056605272 -0.022543447 -0.06757312 0.07633611 0.18200505 0.16332915 -0.083701044 -0.032969575
0.053427014 -0.042267833 0.0685637 0.08477632 0.05895413 -0.081142426 0.1949223 0.020754619
0.111006066 0.014782284 0.0901119 0.026171166 -0.03178974 0.04298283 -0.16229622 0.11833734
00000000: 53ab 273d dd66 fd3d 8c33 373d 6302 3e3d
00000010: 9880 b83b eb13 883d a024 1b3d f0e3 a63d
00000020: 2a76 4f3e f101 393d 5b76 0abe 0261 183e
00000030: 45ed 873d e3a6 873c dab7 ae3d 7269 38bd
00000040: f162 033d 3af5 ea3b fd60 00bc 034f 243d
00000050: 7ce9 a33d 7f5f 873c b754 253d 730f 183e
00000060: ab85 743b 0f42 343d 3a5a 873c 7507 193e
00000070: b191 f9bb 4403 233d 55ec c43c 415a babd
00000080: 936d d63c 7f40 933d 70c2 143d cc34 d5bc
00000090: f156 abbd bc6c 423c 7be8 203e 8a55 b03d
000000a0: eeda 673d 09ad b8bc c763 8abd 1b56 9c3d
000000b0: 885f 3a3e c23f 273e 746b abbd 1b0b 07bd
000000c0: 49d6 5a3d 0921 2dbd 206b 8c3d 359f ad3d
000000d0: e379 713d 002e a6bd b699 473e 9705 aa3c
000000e0: 2657 e33d 6531 723c 968c b83d ea64 d63c
000000f0: f535 02bd c40e 303d fb30 26be d95a f23d

sequential_40/sequential_23/conv1d_24/BiasAdd/ReadVariableOp/resource f4 [64]
-0.023591248 -0.016155766 0.056806646 0.049572304 0.09944888 0.1805899 0.10693331 0.1309272
0.1450981 0.23106161 0.121521786 0.086736865 0.14339462 0.009218032 -0.057728127 0.1338672
0.038892843 0.1888363 0.11741475 0.1721744 0.22565459 0.04452846 0.19838819 0.06709665
0.08011625 0.06351452 0.014091518 0.2774985 0.096154 0.038481817 -0.0063020126 -0.08885497
0.2977036 0.092863515 0.08012681 -0.0050361226 0.12558492 0.15386654 0.021813467 0.051941536
0.04607186 0.057718404 -0.05024177 -0.01821795 0.099893466 -0.050181687 0.06584745 0.027834885
0.19368736 0.014024438 0.06581211 -0.09272337 0.11486663 0.086308315 0.11181025 0.017838683
0.15044741 0.058401275 0.004059461 0.07501959 0.13099086 0.2180029 0.056540165 0.060501512
00000000: 6f42 c1bc 1959 84bc 16ae 683d 540c 4b3d
00000010: dbab cb3d 8fec 383e daff da3d c811 063e
00000020: 9994 143e 6a9b 6c3e 6ae0 f83d 19a3 b13d
00000030: 0ad6 123e 3a07 173c 5474 6cbd 7c14 093e
00000040: 1a4e 1f3d 4e5e 413e 2577 f03d 7c4e 303e
00000050: ff11 673e 7963 363d 4626 4b3e f869 893d
00000060: fd13 a43d e713 823d 1ce0 663c 4914 8e3e
00000070: 63ec c43d 1c9f 1d3d 1d81 cebb 98f9 b5bd
00000080: 9b6c 983e 3a2f be3d 8619 a43d 0f06 a5bb
00000090: 5599 003e 318f 1d3e 28b2 b23c a6c0 543d
000000a0: d9b5 3c3d 226a 6c3d 50ca 4dbd cf3d 95bc
000000b0: f294 cc3d 508b 4dbd 07db 863d fc05 e43c
000000c0: fb55 463e c2c6 653c 80c8 863d c0e5 bdbd
000000d0: 323f eb3d 6ac2 b03d c6fc e43d 6e22 923c
000000e0: e30e 1a3e 2d36 6f3d 3a05 853b dfa3 993d
000000f0: 7822 063e 273c 5f3e a996 673d 6fd0 773d

sequential_40/sequential_21/residual_10/sequential_20/conv1d_21/BiasAdd/ReadVariableOp/resource f4 [64]
-0.040857647 0.0490028 0.08312396 0.08078453 0.010055457 0.031008588 0.10498849 -0.03011035
0.0070278267 -0.034838412 0.031332325 -0.022082655 -0.06385231 -0.007408103 0.030414246 0.2504149
0.032484137 0.078528695 0.041642606 0.047048498 0.0055882316 -0.010492477 0.035054598 0.20571873
0.19346629 0.0739354 0.048613653 0.10529115 0.31760496 -0.011141779 0.038183812 0.10190082
-0.09958924 0.12796374 -0.027204707 0.040349815 0.019939099 -0.11472375 -0.04298578 -0.05212063
-0.013710216 0.07472678 -0.044511024 0.043173507 0.056284733 -0.029532209 -0.017548319 0.059219655
-0.06294275 -0.001597559 0.03416228 0.064793654 0.040545903 0.059927717 0.102610275 -0.015459677
0.14143491 -0.06926161 0.10402958 0.13544224 0.06724287 0.1797958 0.1368538 0.024054516
00000000: 595a 27bd 29b7 483d e53c aa3d 5c72 a53d
00000010: a5bf 243c b905 fe3c 3504 d73d fba9 f6bc
00000020: af49 e63b b9b2 0ebd 5356 003d afe6 b4bc
00000030: 00c5 82bd acbf f2bb 4c27 f93c 6236 803e
00000040: 160e 053d a7d3 a03d 7091 2a3d edb5 403d
00000050: 7c1d b73b a3e8 2bbc 6995 0f3d eea7 523e
00000060: 071c 463e 716b 973d 1c1f 473d e3a2 d73d
00000070: 1e9d a23e 028c 36bc a166 1c3d 61b1 d03d
00000080: 72f5 cbbd ed08 033e 68dc debc d945 253d
00000090: 5257 a33c 49f4 eabd db11 30bd 717c 55bd
000000a0: d0a0 60bc 5b0a 993d 3151 36bd b4d6 303d
000000b0: d28a 663d 88ed f1bc 7ec1 8fbc 4f90 723d
000000c0: 21e8 80bd 2f65 d1ba bfed 0b3d 89b2 843d
000000d0: 7613 263d c476 753d 5625 d23d 964a 7dbc
000000e0: 50d4 103e 08d9 8dbd 760d d53d 5fb1 0a3e
000000f0: a1b6 893d 641c 383e 6723 0c3e fa0d c53c

sequential_40/sequential_21/conv1d_22/BiasAdd/ReadVariableOp/resource f4 [64]
0.07738636 0.087437235 0.030664118 0.05776735 0.13654372 0.02931924 -0.018875688 0.060767617
0.0031938602 0.2477299 0.011106287 0.044619486 0.041718915 0.10570313 0.15518893 0.28039464
-0.05107862 0.041866414 0.12027508 0.043708004 -0.009886683 0.19038151 0.07336724 0.08273791
0.07894993 -0.032769296 -0.00420371 0.24083732 0.1332925 0.08470167 0.06357918 -0.14269039
-0.042887986 0.12695165 -0.00843919 0.25800627 -0.05272334 0.063311376 0.066170484 0.038346995
0.033974566 0.12694341 0.07461551 0.12528348 -0.10629959 0.25966734 0.05593391 -0.025017843
0.07749628 0.051672153 0.12345692 0.1219156 0.08667284 0.062531725 0.09964302 0.04994774
0.111011826 0.18444958 0.06700833 0.17122054 0.20764567 0.077602684 0.07226619 0.088991515
00000000: bd7c 9e3d 4b12 b33d 5133 fb3c 759d 6c3d
00000010: 1ed2 0b3e e72e f03c 30a1 9abc 77e7 783d
00000020: 1550 513b e8ac 7d3e 25f7 353c ecc2 363d
00000030: 74e1 2a3d e27a d83d d9e9 1e3e e38f 8f3e
00000040: d137 51bd 1e7c 2b3d c852 f63d 2a07 333d
00000050: c1fb 21bc 5ff3 423e 9041 963d 7e72 a93d
00000060: 80b0 a13d 1939 06bd 46bf 89bb 0f9e 763e
00000070: d47d 083e 1278 ad3d cd35 823d 6e1d 12be
00000080: 50ab 2fbd 9dff 013e 8744 0abc 6619 843e
00000090: 6ef4 57bd 65a9 813d 6484 873d bd11 1d3d
000000a0: ea28 0b3d 74fd 013e 04d0 983d 504a 003e
000000b0: 99b3 d9bd 1ef3 843e f51a 653d 38f2 ccbc
000000c0: 5fb6 9e3d 2ea6 533d fbd6 fc3d e3ae f93d
000000d0: 8881 b13d a210 803d a411 cc3d 0096 4c3d
000000e0: 2b5a e33d 5ae0 3c3e aa3b 893d 7054 2f3e
000000f0: 11a1 543e 28ee 9e3d 4c00 943d 2f41 b63d

sequential_40/sequential_19/residual_9/sequential_18/conv1d_19/BiasAdd/ReadVariableOp/resource f4 [64]
0.036553714 0.008221987 0.089931935 -0.014570098 0.12696739 0.055224035 -0.03461923 -0.002251787
0.10533648 0.1742485 0.06982368 0.12426145 0.08462516 0.09407072 0.13377519 -0.04118241
0.07137859 -0.03981146 0.16974926 0.3163871 -0.0018779336 -0.027984487 0.0874582 0.05371867
-0.0031750812 -0.03885672 -0.0064384732 0.15248013 -0.11348845 0.09742088 0.10190191 0.14078584
0.12551466 0.1611949 -0.03010898 -0.076492906 -0.039470296 -0.005270891 -0.022902226 -0.0032869095
-0.06106483 0.07848118 -0.0037180977 0.12045893 0.023919506 0.011101082 -0.068327725 0.03376258
0.0009748601 -0.08838514 0.08454524 0.014899992 0.0016363998 0.029827716 0.029687256 -0.022630407
0.063062675 -0.05127809 0.104253314 0.1766236 0.09834042 -0.101082936 0.12073197 0.033660416
00000000: 59b9 153d 83b5 063c 3c2e b83d 6cb7 6ebc
00000010: bd03 023e 9932 623d e5cc 0dbd b892 13bb
00000020: a7ba d73d 336e 323e b8ff 8e3d c97c fe3d
00000030: f54f ad3d 26a8 c03d 5dfc 083e e3ae 28bd
00000040: f02e 923d 5711 23bd c0d2 2d3e 7dfd a13e
00000050: ff24 f6ba b93f e5bc 491d b33d 1c08 5c3d
00000060: 0615 50bb 3928 1fbd d4f9 d2bb c023 1c3e
00000070: a26c e8bd 9984 c73d f3b1 d03d 2a2a 103e
00000080: ea86 003e 4710 253e 1ca7 f6bc 50a8 9cbd
00000090: 9bab 21bd 70b7 acbb 739d bbbc 3169 57bb
000000a0: 1d1f 7abd beba a03d 54ab 73bb 2cb3 f63d
000000b0: d7f2 c33c 50e1 353c 68ef 8bbd a24a 0a3d
000000c0: c18d 7f3a 4503 b5bd 0e26 ad3d 191f 743c
000000d0: 777c d63a 4159 f43c b032 f33c 6763 b9bc
000000e0: 0127 813d f908 52bd c382 d53d d1dc 343e
000000f0: b466 c93d 9204 cfbd 5342 f73d 81df 093d

sequential_40/sequential_19/conv1d_20/BiasAdd/ReadVariableOp/resource f4 [64]
0.08330181 0.03371091 0.074773066 0.037527915 0.015848808 0.16459864 0.096113764 0.04602293
0.076307416 0.013075531 0.029154383 -0.0073469435 -0.037769552 0.105776764 0.14884187 -0.03233693
0.08737328 0.011640451 0.21704651 0.07661015 0.07871323 0.06759667 0.023342451 -0.039272983
0.06457369 0.098351546 0.020920392 0.099286996 0.121851355 0.047024842 0.15656754 0.025754962
0.06295731 0.06971247 0.16710223 0.1359689 -0.051970616 0.1493869 0.017610582 -0.050721083
0.2313682 0.1455689 0.069296256 0.10435539 0.18105797 -0.054502707 0.164181 0.107752286
-0.027587945 -0.035614844 0.13236447 0.033789378 0.17582187 0.104324296 0.14016253 -0.090289935
0.23259489 0.09712929 0.09072775 0.024744183 0.08804528 0.10885414 0.14437562 0.08981011
00000000: 249a aa3d 7314 0a3d 9f22 993d dfb6 193d
00000010: 5cd5 813c 8c8c 283e 4bd7 c43d 8a82 3c3d
00000020: 1047 9c3d c13a 563c 2cd5 ee3c a1be f0bb
00000030: 3fb4 1abd 7da1 d83d 016a 183e bb73 04bd
00000040: c3f0 b23d 97b7 3e3c 7141 5e3e c8e5 9c3d
00000050: 6734 a13d 1f70 8a3d ab38 bf3c b5dc 20bd
00000060: 363f 843d 896c c93d 3e61 ab3c fb56 cb3d
00000070: 348d f93d 1f9d 403d 3e53 203e 12fc d23c
00000080: c3ef 803d 69c5 8e3d d91c 2b3e 6e3b 0b3e
00000090: 24df 54bd e1f8 183e 1144 903c e9c0 4fbd
000000a0: c9eb 6c3e 0410 153e 32eb 8d3d 47b8 d53d
000000b0: 4367 393e 3b3e 5fbd 101f 283e 3bad dc3d
000000c0: 1d00 e2bc dfe0 11bd 8d8a 073e bb66 0a3d
000000d0: a60a 343e faa7 d53d c486 0f3e eee9 b8bd
000000e0: 5b2d 6e3e b9eb c63d 78cf b93d 50b4 ca3c
000000f0: 1551 b43d ebee de3d 34d7 133e 5dee b73d

sequential_40/sequential_17/residual_8/sequential_16/conv1d_17/BiasAdd/ReadVariableOp/resource f4 [64]
-0.022165794 0.084153555 5.0387807e-05 0.074263915 -0.028426977 0.02728124 0.014842502 0.03980097
0.028748557 -0.027683068 0.071930885 -0.0013260524 0.1063385 0.0005044302 0.023149263 0.12968832
-0.005067612 -0.036869347 -0.048590932 0.17437197 0.037716392 0.049939554 -0.03271123 0.021208677
0.1446853 -0.08390061 0.030057289 -0.040797967 -0.053823654 0.020588141 0.042529188 -0.030787317
0.019675422 -0.08235674 0.15498237 0.06321824 -0.0017254701 0.07322216 0.12919101 -0.018386476
-0.036706857 0.05641537 0.068678685 0.113137074 0.06403544 0.10660364 0.08259681 0.1654135
0.21579552 0.045731734 -0.024111664 0.16460909 0.023358302 0.04705049 0.00081662607 0.050530612
0.094700895 0.02594547 0.044382367 -0.04855707 0.08787659 0.081487425 0.092151605 0.062170044
00000000: 0a95 b5bc b358 ac3d 7f57 5338 ae17 983d
00000010: b1df e8bc e87c df3c f72d 733c 5806 233d
00000020: 1882 eb3c 9ac7 e2bc 8050 933d efce adba
00000030: 00c8 d93d bd3b 043a 86a3 bd3c 04cd 043e
00000040: 360e a6bb 5004 17bd 4907 47bd 918e 323e
00000050: 817c 1a3d 6b8d 4c3d 36fc 05bd d2bd ad3c
00000060: 6228 143e 15d4 abbd b43a f63c c51b 27bd
00000070: 3176 5cbd 76a8 a83c 1633 2e3d af35 fcbc
00000080: 5a2e a13c a7aa a8bd b3b3 1e3e 9178 813d
00000090: 2b29 e2ba 80f5 953d a64a 043e 3c9f 96bc
000000a0: ee59 16bd ce13 673d 69a7 8c3d 69b4 e73d
000000b0: 0325 833d 0253 da3d 8428 a93d 2862 293e
000000c0: 80f9 5c3e 3351 3b3d d385 c5bc 498f 283e
000000d0: e959 bf3c 04b8 403d d912 563a 30f9 4e3d
000000e0: 8bf2 c13d 988b d43c 49ca 353d c7e3 46bd
000000f0: a4f8 b33d e1e2 a63d fbb9 bc3d 04a6 7e3d

sequential_40/sequential_17/conv1d_18/BiasAdd/ReadVariableOp/resource f4 [64]
0.07568019 0.029302265 0.016206428 0.24281214 -0.05243455 0.0037732956 0.07485074 -0.025013313
0.12968555 0.10658899 0.1382718 0.00029363015 0.12127458 0.06788284 -0.07744023 0.11169961
0.20410623 -0.00576548 0.08222213 0.1818793 -0.003799636 0.09603588 0.1238035 -0.006764724
0.086483 -0.028712796 0.13059856 -0.07560564 0.008519179 0.26447496 0.11025391 0.12808216
-0.0029812905 -0.00820766 -0.02099685 0.27410707 -0.020171935 -0.06671371 0.025158014 0.0048934873
2.845571e-05 0.056470703 -0.0038792172 0.02885731 0.11199055 0.07812856 0.07633316 0.061758623
0.1571042 0.040974986 0.035252865 0.10185967 0.10513748 0.041088056 -0.03675577 0.20832112
0.07558787 0.23997344 0.11251802 -0.013043325 0.13724834 -0.0073126857 -0.036689155 0.26059693
00000000: 37fe 9a3d 4e0b f03c 58c3 843c bfa3 783e
00000010: 9cc5 56bd 6549 773b 584b 993d b8e8 ccbc
00000020: 4acc 043e 544b da3d 1f97 0d3e 5ff2 9939
00000030: cf5e f83d 2906 8b3d fc98 9ebd c4c2 e43d
00000040: 3901 513e 5aec bcbb 1364 a83d 913e 3a3e
00000050: 5003 79bb 76ae c43d b08c fd3d 9eaa ddbb
00000060: 001e b13d 1937 ebbc a1bb 053e 21d7 9abd
00000070: 0794 0b3c 4369 873e cdcc e13d f827 033e
00000080: c161 43bb 6c79 06bc 9601 acbc c357 8c3e
00000090: 9d3f a5bc 33a1 88bd 2e18 ce3c 8c59 a03b
000000a0: 2cb4 ee37 d34d 673d 773a 7ebb 2a66 ec3c
000000b0: 4d5b e53d de01 a03d 8f54 9c3d 9cf6 7c3d
000000c0: ecdf 203e 63d5 273d 4f65 103d cd9b d03d
000000d0: 5252 d73d f34b 283d 388d 16bd 2252 553e
000000e0: d0cd 9a3d 99bb 753e d96f e63d acb3 55bc
000000f0: d48a 0c3e 419f efbb 5e47 16bd f66c 853e
