final/pdiot_final/pdiotapp/app/src/main/assets/test4s.tflite (tflite, 338208 bytes, 86 tensors)

sequential_20/sequential_9/residual_4/sequential_8/conv1d_9/BiasAdd/ReadVariableOp/resource f4 [64]
0	0x3d87c0ac	0.06628546
1	0x3e65b856	0.224336
2	0x3dcfe623	0.10151317
3	0x3e819033	0.25305328
4	0x3d32d5d5	0.043660957
5	0x3e38197c	0.17978472
6	0x3e08a1ac	0.13342923
7	0x3e2b2488	0.16713154
8	0x3d70b9cc	0.05877094
9	0x3ca337f2	0.019924138
10	0xbc702462	-0.014657112
11	0xbd5272df	-0.05137908
12	0xbbb265c4	-0.0054442603
13	0x3e35e70c	0.17763919
14	0xbc9c11a0	-0.019051373
15	0x3d987082	0.07443334
16	0x3c0b04a4	0.008484993
17	0xbd3b0bf0	-0.04566568
18	0x3e84e56d	0.25956288
19	0x3db6e226	0.08929853
20	0x3ded2c09	0.11580665
21	0xbcfb3e47	-0.030669345
22	0x3d26ea58	0.04075083
23	0x3dd17415	0.10227219
24	0x3e4061fb	0.18787377
25	0x3d7119c5	0.058862466
26	0x3e1a43c3	0.15064912
27	0x3e782c3d	0.24235626
28	0x3e6653e4	0.22492939
29	0xbe01b84a	-0.12667957
30	0x3c6576b3	0.014005351
31	0x3d42cce3	0.047558676
32	0xbbf9d83a	-0.007624653
33	0x3dfadb01	0.12248803
34	0x3e6257de	0.22103831
35	0xbdf2e864	-0.11860731
36	0x3df9b368	0.12192422
37	0x3c6d83be	0.014496742
38	0x3d9cb314	0.07651344
39	0x3bf68220	0.0075228363
40	0x3dad9411	0.08475507
41	0x3d4e0251	0.050295178
42	0x3d5abf1c	0.053404912
43	0x3bc8851c	0.0061193835
44	0x3e0e8c11	0.13920619
45	0x3dc7abf8	0.09749597
46	0x3e3a24d8	0.18178117
47	0x3e46f1fd	0.19428249
48	0x3e08ba64	0.13352352
49	0x3d316efb	0.04331873
50	0x3e5e7977	0.21726023
51	0x3ed012f5	0.40639463
52	0x3d05d839	0.03267691
53	0x3e2813f0	0.16413856
54	0xbcab3186	-0.020897638
55	0x3e949125	0.29016986
56	0x3d0d36a4	0.034475937
57	0xbde10ddd	-0.10988972
58	0x3dffab32	0.12483825
59	0x3dc1dca1	0.0946591
60	0x3e7a9aee	0.24473163
61	0xbd161a04	-0.036645904
62	0x3de56c38	0.11202282
63	0x3e0462a8	0.1292826

sequential_20/sequential_9/conv1d_10/BiasAdd/ReadVariableOp/resource f4 [64]
0	0x3e888c0a	0.2666934
1	0x3dff9d98	0.124812305
2	0x3ea97531	0.33097222
3	0x3d193d81	0.03741217
4	0xba12ccf4	-0.00055999984
5	0x3e266819	0.16250648
6	0x3e88ece7	0.26743242
7	0x3e1a43be	0.15064904
8	0x3e052f1f	0.13006257
9	0x3e004df5	0.12529738
10	0x3d2bd90a	0.04195503
11	0x3dc1ee1c	0.09469244
12	0x3e431d97	0.19054256
13	0x3e3454ab	0.17610423
14	0x3e09da46	0.13462171
15	0x3e0fbd99	0.1403717
16	0x3dd4d551	0.103922494
17	0x3e7a4f38	0.24444282
18	0x3cf26ccc	0.029592894
19	0x3e8a24e7	0.2698128
20	0x3c821306	0.015878212
21	0x3dd6ead0	0.10494006
22	0x3e294238	0.16529167
23	0x3dafb182	0.08578779
24	0x3cb745b0	0.022372097
25	0x3e0acc95	0.13554604
26	0x3da9c879	0.0829019
27	0x3e247737	0.16061102
28	0x3e905e22	0.28196818
29	0x3e9bcb7b	0.3042868
30	0xbcb7ce79	-0.022437321
31	0x3dc43494	0.09580341
32	0xbcf70209	-0.030152338
33	0x3d90302f	0.0704044
34	0x3e0ce642	0.13759711
35	0x3d96b412	0.073585644
36	0x3de5bfbe	0.112182125
37	0x3dc98e58	0.09841603
38	0x3d77d12b	0.060502212
39	0x3c390f04	0.011295084
40	0x3e21b2d9	0.15790881
41	0x3ca37e4a	0.01995768
42	0x3e1bf186	0.15228853
43	0x3d47f997	0.04882201
44	0x3e5a76b3	0.21334343
45	0x3e5da433	0.21644668
46	0x3d8a693f	0.06758355
47	0x3e030d6b	0.12798087
48	0x3d7b2ab4	0.06132002
49	0x3cf3407c	0.029693834
50	0x3e7979f6	0.2436293
51	0x3d64ef50	0.05589229
52	0x3e07bff3	0.13256817
53	0x3d9f8334	0.07788697
54	0x3e4ec7ad	0.20193358
55	0x3d3b2814	0.04569252
56	0x3e09046f	0.13380598
57	0x3e074e76	0.13213524
58	0x3e463017	0.19354282
59	0x3e7b55c9	0.24544443
60	0x3b09d8e6	0.0021033823
61	0x3bcf073b	0.0063180006
62	0x3e0ec9ec	0.13944215
63	0xbb5254d4	-0.0032094019

sequential_20/sequential_7/residual_3/sequential_6/conv1d_7/BiasAdd/ReadVariableOp/resource f4 [64]
0	0xbce536db	-0.027980259
1	0x3d84c992	0.06483759
2	0x3d38d84d	0.045128155
3	0x3d8f51be	0.06998013
4	0x3c5700c6	0.013122743
5	0x3c4701e7	0.01214645
6	0x3dadea5d	0.08491967
7	0x3e57c589	0.21071447
8	0xbdc9b9f0	-0.09849918
9	0xbdaf2b25	-0.08553151
10	0x3e2e4771	0.1701944
11	0x3d424f63	0.04743899
12	0x3e49ecc4	0.19719225
13	0x3def01ec	0.116702884
14	0x3e990680	0.29887772
15	0x3e2f1180	0.1709652
16	0x3d4c0f2d	0.04981916
17	0x3da72a60	0.08162379
18	0x3c9142f0	0.017732114
19	0x3ec2805d	0.37988558
20	0x3dd82112	0.10553183
21	0x3c198e16	0.009372255
22	0x3e896859	0.26837423
23	0xbd89de0c	-0.06731805
24	0x3d767bf3	0.0601768
25	0x3e40cfdf	0.18829297
26	0x3e736484	0.23768812
27	0x3badd27f	0.005304634
28	0x3e912aa1	0.28352836
29	0x3e22749e	0.15864798
30	0xbd125c61	-0.03573263
31	0x3a71a79a	0.0009218395
32	0x3cc197eb	0.02363201
33	0xbd0a9e54	-0.0338424
34	0xbdb3d271	-0.08780373
35	0x3dee25fd	0.116283394
36	0x3e10e067	0.14148103
37	0x3e511e48	0.20421708
38	0x3e0b355f	0.13594578
39	0x3e478586	0.19484529
40	0x3dceec20	0.10103631
41	0x3e278fe3	0.16363482
42	0x3d7f00d6	0.062256657
43	0x3db43edd	0.08801053
44	0x3dc22a8e	0.09480773
45	0x3e5b080e	0.21389791
46	0xbd066571	-0.032811586
47	0xbccd28d0	-0.025043875
48	0x3d592809	0.053016696
49	0x3de30f53	0.11086907
50	0x3d5bb3ba	0.053638197
51	0x3d833366	0.06406288
52	0x3e7dbc8e	0.24778959
53	0x3d2ffc85	0.04296543
54	0x3d5fb26a	0.05461351
55	0x3dcce1d0	0.10004008
56	0x3ded6699	0.115918346
57	0x3df35a07	0.11882406
58	0x3e8ad915	0.27118745
59	0x3e51aeea	0.2047688
60	0x3d771fdb	0.060333114
61	0xbaea4784	-0.0017874097
62	0x3e1a432c	0.15064687
63	0x3e58f72f	0.21188043

sequential_20/sequential_7/conv1d_8/BiasAdd/ReadVariableOp/resource f4 [64]
0	0x3e520ef3	0.20513515
1	0xbca5355f	-0.02016705
2	0xbb5396d6	-0.003228595
3	0xbd1231c4	-0.03569199
4	0x3e1b81ce	0.15186235
5	0x3e038fb0	0.12847781
6	0x3e239905	0.15976341
7	0x3d20131b	0.03908072
8	0x3e86a977	0.26301166
9	0x3d0e5172	0.03474564
10	0x3dae20c3	0.085023426
11	0x3ddc49f5	0.10756294
12	0x3cc08a10	0.023503333
13	0x3e4c6cd6	0.19963393
14	0x3e472301	0.19446947
15	0x3e258c50	0.16166806
16	0x3dd25501	0.102701195
17	0x3dff6503	0.12470438
18	0x3dbffb17	0.093740635
19	0x3de8f90a	0.113756254
20	0x3d878237	0.066166334
21	0x3d4afb07	0.049555805
22	0xbd50672a	-0.050879635
23	0xbd62b77d	-0.05535077
24	0x3d926f2a	0.07150109
25	0x3e498bb9	0.19682206
26	0x3e6e56aa	0.23275247
27	0x3e537091	0.2064841
28	0x3e3d8567	0.1850792
29	0x3de86641	0.113476284
30	0x3cf7e75a	0.030261684
31	0x3e84a615	0.2590796
32	0x3e295f4a	0.16540256
33	0x3e5d83db	0.2163233
34	0x3d3d1f54	0.046172455
35	0xbc833e19	-0.016020821
36	0x3e79ea83	0.24405865
37	0x3dfcd85d	0.123459555
38	0x3d13c06f	0.03607219
39	0x3dd1efeb	0.10250839
40	0x3d46226b	0.048372667
41	0x3dfdf603	0.12400439
42	0x3e3bc8df	0.18338345
43	0x3d73b44e	0.059498124
44	0xbd868159	-0.0656764
45	0x3e8db63d	0.276781
46	0xbd256b55	-0.040385563
47	0x3d6d533b	0.057940703
48	0x3e7167ec	0.235748
49	0x3e02f0d1	0.12787177
50	0x3e9df41e	0.3085031
51	0x3df2ea5d	0.118611075
52	0x3d9a0496	0.07520406
53	0x3dfafa5c	0.122547835
54	0x3dfa33a5	0.12216882
55	0x3e0e1512	0.13875225
56	0x3e75857e	0.23976704
57	0x3df14edc	0.11782619
58	0x3e8eb19c	0.2786988
59	0xbcd01d69	-0.025404649
60	0xbdf75d02	-0.12078287
61	0x3dc2b843	0.095078014
62	0x3c7e7216	0.01553013
63	0x3ddf25eb	0.10895904

sequential_20/sequential_5/residual_2/sequential_4/conv1d_5/BiasAdd/ReadVariableOp/resource f4 [64]
0	0xbd0ec0d2	-0.034851857
1	0x3dcb129f	0.09915661
2	0x3e537475	0.20649894
3	0x3dce64d2	0.10077824
4	0x3d5d5800	0.054039
5	0x3df3cacd	0.119039156
6	0x3e375e59	0.17907085
7	0x3d3ee30d	0.04660325
8	0x3df1dc50	0.118095994
9	0xbd241ca4	-0.040066376
10	0x3d04b97b	0.03240345
11	0x3e1cdecf	0.1531937
12	0x3cee229c	0.029069237
13	0x3ccab2e6	0.024743509
14	0x3e306b5f	0.17228459
15	0x3e68c1ba	0.22730151
16	0x3e7c3b31	0.24631955
17	0x3d6b61a1	0.057466153
18	0x3de09cd4	0.109674126
19	0x3e25bcc4	0.1618529
20	0x3deebc00	0.11656952
21	0x3e037f6d	0.12841578
22	0x3e4b589f	0.19858025
23	0x3e8d3d8f	0.27586028
24	0x3d29e7f4	0.041480973
25	0x3ea2300b	0.3167728
26	0xbd71751d	-0.05894958
27	0x3e312038	0.17297447
28	0x3e3cb993	0.18430166
29	0x3e08acbb	0.13347141
30	0x3d7c3047	0.06156948
31	0x3d754fb3	0.05989046
32	0x3ea48309	0.32131222
33	0xb9b7ff0b	-0.00035094502
34	0xbdd73aba	-0.10509248
35	0x3d12ffb0	0.035888374
36	0x3daba738	0.08381504
37	0x3dcd1bf1	0.10015095
38	0x3d2c6482	0.04208804
39	0x3c829c51	0.015943678
40	0x3d432d65	0.047650713
41	0x3dc09771	0.09403885
42	0x3d9c32b9	0.07626862
43	0x3ebe585f	0.37176797
44	0x3e420a3c	0.18949217
45	0x3dd1b50e	0.102396116
46	0x3d8b9f38	0.06817478
47	0x3e29b1e6	0.16571769
48	0x3d55bd2a	0.052182354
49	0xbd6fe695	-0.05856951
50	0x3e975a01	0.29560855
51	0x3e73069c	0.2373299
52	0x3e306032	0.17224196
53	0x3d134fe3	0.035964858
54	0x3dd719a3	0.10502937
55	0x3dd40b94	0.10353771
56	0x3e0511ce	0.12995073
57	0x3e8f76a6	0.2802021
58	0xbd93be14	-0.07213989
59	0x3e04b7d6	0.12960753
60	0x3e33154e	0.17488596
61	0x3d93640a	0.07196815
62	0xbdd873f2	-0.1056899
63	0x3d5ce938	0.053933352

sequential_20/sequential_5/conv1d_6/BiasAdd/ReadVariableOp/resource f4 [64]
0	0x3e90ab56	0.2825572
1	0x3dd52114	0.104067
2	0x3e3fa450	0.18715024
3	0x3dc5fcdf	0.09667372
4	0x3dd5a616	0.10432069
5	0x3e24add1	0.1608193
6	0x3dda3b57	0.106558494
7	0x3e61fe18	0.22069585
8	0x3e83b640	0.25724983
9	0xbdb22afc	-0.08699605
10	0x3c9d9bda	0.019239355
11	0x3e454285	0.19263656
12	0x3e2a9700	0.16659164
13	0x3ea5ae67	0.3235962
14	0xbce3ef7a	-0.027824152
15	0xbd7e9b10	-0.062159598
16	0x3e63e1e1	0.22254135
17	0x3dbb6bfc	0.09151456
18	0x3eb15fa8	0.34643292
19	0x3cfc919d	0.030831153
20	0x3e221fbd	0.1583242
21	0x3e46ccef	0.19414113
22	0x3e9b207d	0.30298224
23	0x3e0addde	0.13561198
24	0x3d03ed66	0.032208823
25	0x3d38cd84	0.04511787
26	0x3e9a9c4f	0.3019738
27	0x3df84598	0.12122649
28	0x3e4c0506	0.19923791
29	0x3e371fb7	0.17883192
30	0x3e418fb4	0.18902475
31	0x3d959abf	0.07304906
32	0x3dbc693d	0.0919976
33	0x3c3af7a6	0.011411583
34	0x3cc0bd81	0.023527863
35	0xbbd4be7f	-0.0064924355
36	0x3e59ad51	0.21257521
37	0x3dd86175	0.105654635
38	0x3e2ab8d8	0.16672075
39	0x3e07a228	0.13245451
40	0x3e05e720	0.13076448
41	0x3e52b7e4	0.20577961
42	0xbd20a35f	-0.039218303
43	0x3b4d5074	0.0031328471
44	0x3c647da1	0.013945968
45	0x3e901e49	0.28148106
46	0x3dfb52e2	0.12271668
47	0xbe44655c	-0.1917929
48	0x3dad4d44	0.08462003
49	0x3de36ffc	0.11105344
50	0x3dbdbef4	0.09264937
51	0x3e9df590	0.30851412
52	0x3d67c3ed	0.056583334
53	0x3d5d4929	0.05402485
54	0x3e688e9d	0.22710653
55	0x3e1d8ff0	0.15386939
56	0xbd08f50a	-0.033436812
57	0x3db874c1	0.09006644
58	0x3e519c94	0.20469886
59	0x3c77a58a	0.015115151
60	0x3da31afc	0.07964131
61	0x3e171514	0.14754134
62	0x3e1b4b58	0.1516546
63	0x3d721323	0.05910028

sequential_20/sequential_3/residual_1/sequential_2/conv1d_3/BiasAdd/ReadVariableOp/resource f4 [64]
0	0x3df6f285	0.12057976
1	0xbd0bfa93	-0.034174513
2	0x3dc77ce8	0.09740621
3	0x3e4d22fc	0.20032877
4	0x3eb01f37	0.34398815
5	0x3e2c63e4	0.1683498
6	0x3e4ea7d8	0.20181215
7	0x3e70282b	0.23452823
8	0x3e07bf40	0.1325655
9	0x3db9b320	0.090673685
10	0x3e58715d	0.21136995
11	0x3e44ac94	0.19206458
12	0x3d7fac1f	0.062420007
13	0x3e514ea1	0.20440151
14	0x3dac2362	0.08405186
15	0x3df667b7	0.12031501
16	0x3d92dde3	0.07171228
17	0xbcc9f425	-0.02465255
18	0x3e294b9c	0.16532749
19	0xbbdb4a1d	-0.0066921846
20	0x3eb08559	0.34476736
21	0x3e97f61b	0.2967995
22	0x3b5e41ed	0.0033913807
23	0x3c42ff3c	0.011901673
24	0x3e8a7d7e	0.27048868
25	0xbe159736	-0.14608464
26	0x3d9ac32e	0.07556759
27	0xbca0bc63	-0.01962108
28	0x3db22df6	0.087001726
29	0xbbd79edb	-0.0065802163
30	0x3e4f9159	0.2027029
31	0x3e0c0a1b	0.1367573
32	0x3e904aff	0.28182217
33	0x3e4319e7	0.1905285
34	0x3e9fccf4	0.31211054
35	0x3e8986b6	0.2686059
36	0x3e5ec48c	0.21754664
37	0x3e10c82d	0.14138861
38	0x3e364c64	0.17802578
39	0x3da44152	0.08020271
40	0xbd19beff	-0.037535664
41	0x3de6b2f0	0.11264598
42	0x3c812e7c	0.015769236
43	0x3cee3086	0.029075872
44	0xbbc176e8	-0.0059040673
45	0x3e491338	0.19636238
46	0x3e84380a	0.25824004
47	0x3e5834e0	0.2111392
48	0x3da0d103	0.07852366
49	0x3e89d218	0.269181
50	0x3e8aa33e	0.2707767
51	0x3b1b4d08	0.0023697037
52	0x3db6a75a	0.089186385
53	0x3e6ac8c0	0.22928143
54	0x3ea517d5	0.32244745
55	0x3cd42305	0.025895605
56	0x3de38b06	0.11110501
57	0x3e81a037	0.25317547
58	0x3dcce956	0.10005443
59	0x3f1525d3	0.5826084
60	0x3e515a3e	0.20444581
61	0x3e52197a	0.20517531
62	0x3e6dc8a1	0.23221065
63	0x3e214bc4	0.15751559

sequential_20/sequential_3/conv1d_4/BiasAdd/ReadVariableOp/resource f4 [64]
0	0x3e1bead1	0.15226294
1	0x3e323cdb	0.17406027
2	0x3dee8958	0.1164729
3	0x3d92b77f	0.07163905
4	0x3d919c2a	0.07109864
5	0x3e9d9190	0.30775118
6	0x3e59beb9	0.21264161
7	0x3e99d9d0	0.3004899
8	0x3dadca90	0.08485901
9	0x3e11d753	0.14242296
10	0x3e20c724	0.15700966
11	0x3e2dde1e	0.16979262
12	0xbe1c6fb0	-0.1527698
13	0x3deab388	0.11460024
14	0x3e935993	0.28779277
15	0x3dda426f	0.106572025
16	0x3d505093	0.05085809
17	0x3e665a82	0.22495463
18	0x3e790e2b	0.24321811
19	0x3d7a85fa	0.061162926
20	0x3e30f3d1	0.17280509
21	0x3cee0664	0.029055782
22	0x3e2d04f8	0.16896427
23	0x3e6a719d	0.22894903
24	0x3e56cb6c	0.20976037
25	0x3e028202	0.12744907
26	0x3e1eca5d	0.15506883
27	0x3e81318b	0.2523311
28	0x3e1efbca	0.15525737
29	0x3ba54b21	0.0050443565
30	0x3e994d56	0.29941815
31	0x3da82b68	0.08211404
32	0x3e70f217	0.2352985
33	0xbe03ca17	-0.1287006
34	0x3d368a6b	0.0445656
35	0x3ca6dc70	0.020368785
36	0x3e48051a	0.19533196
37	0x3d53e796	0.05173453
38	0x3d916bf2	0.07100667
39	0x3e63d8a5	0.22250612
40	0xba435661	-0.0007451531
41	0x3e486d39	0.19572915
42	0x3e079b32	0.13242796
43	0x3cb612cf	0.022225766
44	0x3e26982c	0.16268986
45	0x3e5787d5	0.2104791
46	0x3e0bfeee	0.13671467
47	0x3e320d64	0.1738792
48	0x3dbc33bd	0.09189556
49	0x3df4c717	0.11952036
50	0x3d3c7708	0.046011955
51	0x3dd91588	0.1059981
52	0x3d73d061	0.059524897
53	0x3c63b30b	0.013897668
54	0x3dd4d20d	0.103916265
55	0x3e2ec020	0.17065477
56	0xbd0719d8	-0.03298363
57	0x3bca9b1a	0.0061830403
58	0x3d80eb6e	0.06294905
59	0x3df4097d	0.11915872
60	0x3e216d41	0.15764333
61	0x3d628269	0.05530015
62	0xbd56984f	-0.052391347
63	0x3d07c5a1	0.033147458

sequential_20/sequential_19/residual_9/sequential_18/conv1d_19/BiasAdd/ReadVariableOp/resource f4 [64]
0	0xbdac9bf5	-0.08428184
1	0xbd12295a	-0.035683967
2	0xbdefd19c	-0.11709902
3	0xbcf37216	-0.029717486
4	0xbda0309f	-0.07821774
5	0xbdeb2224	-0.11481121
6	0xbe6561be	-0.22400567
7	0x3e56ce77	0.20977198
8	0x3e4fe38d	0.20301647
9	0x3ef5b1c3	0.47987184
10	0x3db82701	0.089918144
11	0xbd6ca1f2	-0.05777163
12	0x3ded1510	0.11576283
13	0xbcd25bfc	-0.025678627
14	0x3d06b52e	0.03288763
15	0xbde4c54f	-0.11170446
16	0xbd4ecadb	-0.050486427
17	0xbe01e9de	-0.1268687
18	0x3e2e6508	0.17030728
19	0xbe266d70	-0.16252685
20	0x3d48e6c9	0.04904822
21	0x3de60dbc	0.112330884
22	0x3df7614d	0.120791055
23	0xbd496459	-0.049167965
24	0xbcfe9044	-0.03107465
25	0x3d708fbd	0.05873083
26	0x3d8186d8	0.063245475
27	0xbd12a4bd	-0.035801638
28	0x3d4a3ef1	0.04937643
29	0x3da8a43b	0.082344495
30	0x3e820fd8	0.25402713
31	0xbdd81cac	-0.10552344
32	0xbdfb0293	-0.1225635
33	0x3d209269	0.039202128
34	0xbd7f8bd9	-0.06238923
35	0x3b327a7c	0.002723365
36	0xbd206418	-0.039157957
37	0x3daf5278	0.085606515
38	0xbdef3a77	-0.11681073
39	0x3d8f5f79	0.07000632
40	0xbdd33722	-0.1031325
41	0x3d156044	0.03646876
42	0xbd1b56a2	-0.037924416
43	0xbdcccf61	-0.10000492
44	0xbb2c984f	-0.00263359
45	0x3dccab8c	0.099936575
46	0xbbb37f0b	-0.005477791
47	0x3d997ed2	0.07494892
48	0xbe0d9f2f	-0.13830255
49	0xbcd2963f	-0.025706409
50	0xbd858744	-0.065199405
51	0x3dd3c0f4	0.10339537
52	0xbbaca9bf	-0.0052692587
53	0x3ec294b8	0.38004088
54	0xbdf4c170	-0.11950958
55	0x3e6e2201	0.23255159
56	0x3d6a64f2	0.057225175
57	0xbdcc0865	-0.09962539
58	0x3ca4b232	0.020104501
59	0x3da90003	0.08251955
60	0x3ab43bc7	0.0013750725
61	0x3e282a20	0.1642232
62	0x3e4d8a7f	0.20072363
63	0xbe073d5d	-0.13207002

sequential_20/sequential_19/conv1d_20/BiasAdd/ReadVariableOp/resource f4 [64]
0	0x3cbb1f99	0.022842215
1	0xbe0b9347	-0.136304
2	0xbe24d4f5	-0.16096862
3	0xbd25817c	-0.04040669
4	0xbcd40f21	-0.02588612
5	0xbd8735a7	-0.0660203
6	0xbe6e0a49	-0.23246111
7	0xbd0e6a65	-0.034769434
8	0xbd8a06c4	-0.06739572
9	0xbcca6ed7	-0.024711056
10	0xbdc32662	-0.09528805
11	0xbe57fb47	-0.21091948
12	0xbe1e21f1	-0.15442635
13	0xbca7f596	-0.020502847
14	0xbe398f61	-0.18121101
15	0xbdb471cb	-0.08810767
16	0xbcea511d	-0.028603131
17	0xbe1bbd96	-0.1520904
18	0xbe147b7f	-0.14500235
19	0xbd3c709f	-0.04600584
20	0xbd07279a	-0.03299675
21	0x3cea8d05	0.028631696
22	0xbe123b1a	-0.14280358
23	0xbd810076	-0.06298916
24	0xbe32659a	-0.1742157
25	0xbe075e37	-0.13219534
26	0xbdf47c8e	-0.119378194
27	0xbd0b4258	-0.033998817
28	0xbe02735f	-0.12739323
29	0xbe349975	-0.17636664
30	0xbdd538e2	-0.1041124
31	0x3d2cd8fb	0.042199116
32	0xbe4a3762	-0.1974769
33	0xbc959271	-0.018258305
34	0x3c41048e	0.011780871
35	0xbd3dbbd7	-0.046321716
36	0xbdd5c6b4	-0.1043829
37	0xbe71d65e	-0.23616931
38	0xbd42bd62	-0.04754389
39	0x3c451522	0.012028964
40	0xbd087580	-0.03331518
41	0xbdfd2278	-0.1236009
42	0xbe8a2285	-0.2697946
43	0xbded4e75	-0.1158723
44	0xbe0c2cd5	-0.13688977
45	0xbd868884	-0.06569007
46	0xbd30fe2b	-0.043211143
47	0xbe02e366	-0.12782058
48	0xbe4eaee5	-0.20183904
49	0xbe139bc7	-0.14414893
50	0xbdbbb1dd	-0.09164784
51	0xbcdf9d50	-0.027296692
52	0x3cb23735	0.02175484
53	0xbdbc0f82	-0.091826454
54	0xbdf9e810	-0.122024655
55	0xbe8d1e61	-0.2756224
56	0xbe0387f2	-0.12844828
57	0x3e15b86f	0.14621137
58	0xbd7a9601	-0.06117821
59	0xbdd8b5ab	-0.105815254
60	0x3e9532fd	0.29140463
61	0xbd3b5777	-0.04573771
62	0xbd23696c	-0.03989546
63	0x3dec793c	0.11546561

sequential_20/sequential_17/residual_8/sequential_16/conv1d_17/BiasAdd/ReadVariableOp/resource f4 [64]
0	0x3e0902e0	0.13380003
1	0x3d7438c9	0.059624467
2	0xbdfc2647	-0.12311988
3	0xbdfadf51	-0.122496255
4	0x3e226592	0.15859058
5	0x3a2a72ea	0.0006502109
6	0xbe15b115	-0.14618333
7	0xbbff6d6b	-0.007795026
8	0x3cc0a4e0	0.023516119
9	0xbe2529ae	-0.16129181
10	0xbddac6bc	-0.10682437
11	0x3e2fe2c8	0.17176354
12	0xbe0ea9e7	-0.13932
13	0x3dea9e1f	0.114559405
14	0x3ed9d96a	0.42548686
15	0x3e5e99a5	0.21738298
16	0x3d786365	0.060641665
17	0x3e0e8a6c	0.13919991
18	0x3d00b12c	0.031418964
19	0x3dd8a454	0.10578218
20	0x3e20c661	0.15700676
21	0xbdc69b41	-0.09697581
22	0x3e3a1c68	0.18174899
23	0x3e37371f	0.17892121
24	0x3bee3b05	0.0072702193
25	0x3e395f31	0.18102719
26	0x3b2aeb5c	0.0026080227
27	0x3e1f4fdb	0.15557806
28	0x3d1628d2	0.036660023
29	0xbd7b399f	-0.06133425
30	0x3e4a9968	0.19785082
31	0x3d7c95a1	0.061666135
32	0xbe46c81e	-0.19412276
33	0x3dfaec0e	0.12252055
34	0x3e6c3a6e	0.23069164
35	0x3e56e66f	0.20986341
36	0x3be9e766	0.0071381805
37	0x3dd7238b	0.10504826
38	0x3d60dced	0.05489819
39	0x3d99203d	0.07476852
40	0xbe138ec9	-0.14409937
41	0xbd1c5080	-0.03816271
42	0x3e27c807	0.16384898
43	0x3de45457	0.11148899
44	0xbdfcb979	-0.123400636
45	0x3dd6e260	0.10492396
46	0x3e8c779e	0.2743501
47	0x3e11e227	0.14246427
48	0x3d28264a	0.04105214
49	0x3e0cc98c	0.13748759
50	0x3e6a2a4e	0.228677
51	0x3e52bcfb	0.20579903
52	0x3e376337	0.17908941
53	0x3d9a18ef	0.07524287
54	0x3d362354	0.044467285
55	0xbd12a27d	-0.035799492
56	0xbeaa3324	-0.33242142
57	0x3e0dbb8f	0.13841079
58	0xbe2ecba4	-0.1706987
59	0x3d81deb8	0.06341308
60	0x3cfbda8d	0.030743862
61	0xbd17c243	-0.037050497
62	0x3a7e04d7	0.0009690052
63	0x3e4b50d4	0.19855052

sequential_20/sequential_17/conv1d_18/BiasAdd/ReadVariableOp/resource f4 [64]
0	0x3d991c17	0.07476061
1	0xbe080407	-0.13282786
2	0x3e223b68	0.15842974
3	0xbb38c874	-0.0028195651
4	0xbe0821ae	-0.13294098
5	0x3e147b63	0.14500193
6	0x3e2fc203	0.17163853
7	0x3e0d732c	0.13813466
8	0x3dbfdceb	0.09368309
9	0x3e7e6e77	0.24846826
10	0x3c78fed8	0.015197478
11	0xbd970444	-0.073738605
12	0xbbe1e47a	-0.0068936916
13	0x3dd3464f	0.10316145
14	0x3dbce047	0.09222465
15	0x3d144970	0.036202848
16	0x3db87f98	0.090087116
17	0x3e357c2d	0.1772315
18	0x3e99f284	0.30067837
19	0xbd442367	-0.047885325
20	0xbdf11cb8	-0.11773056
21	0x3e087b78	0.1332835
22	0x3dd17bd1	0.10228694
23	0xbd55a71b	-0.052161317
24	0x3d34c706	0.044135116
25	0x3c9186bf	0.017764447
26	0xbb989415	-0.0046563246
27	0x3d94fed1	0.07275165
28	0xbd1519ec	-0.036401674
29	0xbd73416f	-0.059388574
30	0x3e05872d	0.13039847
31	0xbe02b7f9	-0.12765492
32	0x3daf7eac	0.085690826
33	0x3d9c07f2	0.07618703
34	0x3e7f82d8	0.24952257
35	0x3e35df09	0.17760862
36	0x3e5bf7cc	0.21481246
37	0x3e331a7c	0.17490572
38	0x3e39ac96	0.18132243
39	0x3e6a51cb	0.22882764
40	0x3d0405b3	0.032231998
41	0x3dde68d2	0.10859837
42	0x3d96ed47	0.07369476
43	0x3dd4b849	0.10386712
44	0x3d2b31b2	0.04179544
45	0xbdb1cc40	-0.08681536
46	0xbd2dcbad	-0.04243057
47	0x3ca1cc04	0.019750603
48	0x3e0841e1	0.13306381
49	0xbda4703f	-0.08029222
50	0x3d68de2d	0.05685251
51	0x3d967a7f	0.07347583
52	0x3e462b11	0.19352366
53	0x3e7dc41f	0.24781846
54	0x3e2e4c3e	0.17021272
55	0x3d7b95fd	0.061422337
56	0xbd31fd8d	-0.043454695
57	0x3e118a11	0.14212824
58	0x3dd4ae9e	0.10384868
59	0xbd42ba88	-0.04754117
60	0x3d96ee66	0.0736969
61	0x3e1f786c	0.15573281
62	0x3ccf9e33	0.02534399
63	0x3e2a7148	0.16644776

sequential_20/sequential_15/residual_7/sequential_14/conv1d_15/BiasAdd/ReadVariableOp/resource f4 [64]
0	0xbc013ddb	-0.007888283
1	0x3da42da2	0.08016516
2	0x3e209f7b	0.15685837
3	0xbda9db5a	-0.08293791
4	0xb9161f5e	-0.000143168
5	0x3e1ddbb1	0.15415837
6	0x3e1f3151	0.15546156
7	0xbc9d6979	-0.019215332
8	0x3dd8c96f	0.105852954
9	0x3d7dcdb4	0.061963752
10	0x3de074a7	0.1095975
11	0xbd0e60a5	-0.034760136
12	0x3ea427bc	0.32061565
13	0x3de16cb3	0.11007061
14	0x3cac8e34	0.021063901
15	0xbd2324a9	-0.039829884
16	0xbe08f928	-0.13376296
17	0x3dddb33e	0.10825203
18	0xbe282030	-0.16418529
19	0x3e058369	0.1303841
20	0xbd927f11	-0.07153142
21	0x3725d12a	9.883466e-06
22	0x3c5657e2	0.013082476
23	0x3e1a60f2	0.15076044
24	0x3e7e313f	0.24823473
25	0x3da25c2b	0.07927736
26	0xbdf15ede	-0.117856726
27	0x3e91fa1c	0.2851113
28	0x3e863b11	0.2621694
29	0x3d21861f	0.03943455
30	0x3e4766df	0.19472836
31	0x3e173d97	0.14769588
32	0x3da6ff08	0.08154112
33	0x3e2e819b	0.17041628
34	0x3e9e6e27	0.30943415
35	0xbd4ffd39	-0.0507786
36	0x3da51d6a	0.08062251
37	0x3b76bb15	0.003764813
38	0x3d9a070e	0.07520877
39	0x3e23ad25	0.15984018
40	0x3c565e71	0.01308404
41	0xbc46e95c	-0.012140598
42	0x3ba4a6c0	0.005024761
43	0xbdd6ad05	-0.104822196
44	0xbdb30712	-0.08741583
45	0x3d419662	0.047262557
46	0x3cf13bc2	0.02944744
47	0x3e5d00a9	0.21582283
48	0x3e391fe0	0.18078566
49	0x3dff1645	0.124554195
50	0x3d8726e1	0.065992124
51	0x3e493bbb	0.19651692
52	0x3e0c4ebc	0.1370191
53	0xbca7432b	-0.02041777
54	0xbd716492	-0.058933802
55	0x3d9940f4	0.07483092
56	0x3e60af8c	0.21941966
57	0x3e88b0e2	0.2669745
58	0x3dd7aa3a	0.10530515
59	0x3d151c9f	0.03640425
60	0x3e8250a9	0.25452164
61	0xbdd9aa5b	-0.10628196
62	0xbc21b3e2	-0.009869548
63	0x3e2c7233	0.16840439

sequential_20/sequential_15/conv1d_16/BiasAdd/ReadVariableOp/resource f4 [64]
0	0x3e43b87a	0.19113341
1	0x3e1dd4ca	0.15413204
2	0x3c7dc770	0.015489444
3	0xbbea26d3	-0.0071457415
4	0x3e5b7385	0.21430786
5	0x3df46391	0.11933053
6	0x3e4e6feb	0.20159881
7	0xbe94296d	-0.28937855
8	0xbe49a03c	-0.19690031
9	0x3dbe0375	0.09278003
10	0x3de72b65	0.11287574
11	0x3df7d309	0.12100799
12	0x3d7be64c	0.061498925
13	0x3dd43e70	0.103634715
14	0x3e0bfb80	0.13670158
15	0xbbaee997	-0.0053379047
16	0x3e0e88c0	0.13919353
17	0x3e5cbbff	0.2155609
18	0x3e2c177a	0.1680583
19	0xbd8040f2	-0.06262387
20	0x3d93b16f	0.07211577
21	0x3e4710b3	0.19439964
22	0x3d68618f	0.056733664
23	0xbda3694e	-0.0797907
24	0x3e3f16bf	0.1866102
25	0x3e0fa4b7	0.14027677
26	0x3dae6e2b	0.085171066
27	0xbbc916b0	-0.0061367378
28	0x3d13e950	0.036111176
29	0x3e8e8c8e	0.2784161
30	0x3db2bbd3	0.08727231
31	0x3e03238a	0.12806526
32	0x3d50242f	0.050815757
33	0x3e4921dd	0.19641824
34	0x3ddaf3c0	0.10691023
35	0x3e8f0dfe	0.27940363
36	0x3eb8f95a	0.3612774
37	0x3e3887be	0.18020532
38	0x3e3d642b	0.18495242
39	0x3ea3b43e	0.3197345
40	0x3d01eef5	0.031722028
41	0x3dd64f56	0.10464351
42	0xbdbba7bb	-0.091628514
43	0x3db983ce	0.09058343
44	0xbd8373bd	-0.0641856
45	0x3dafd10c	0.085847944
46	0x3e6ceb8b	0.23136728
47	0xbd4e52f9	-0.050372098
48	0xbcfb2ba7	-0.030660463
49	0xbe063df1	-0.13109566
50	0x3cde20df	0.027115284
51	0x3c0eea68	0.008722879
52	0x3c22a52f	0.009927078
53	0x3e31e063	0.17370753
54	0xbe1cc70c	-0.15310305
55	0x3db2b82a	0.08726533
56	0x3da0216b	0.07818874
57	0x3e2a9e33	0.1666191
58	0x3e51e330	0.20496821
59	0x3d6c42d0	0.057680905
60	0x3dbcf12f	0.092256896
61	0x3d84dd0e	0.06487475
62	0x3e0d3b76	0.13792214
63	0x3e0f220c	0.13977832

sequential_20/sequential_13/residual_6/sequential_12/conv1d_13/BiasAdd/ReadVariableOp/resource f4 [64]
0	0x3d335dee	0.04379075
1	0x3e5231fd	0.20526882
2	0x3e43e129	0.1912886
3	0xbcb0bb1c	-0.021573596
4	0x3d6785f0	0.056524217
5	0x3d45b14b	0.048264783
6	0x3ba7bc82	0.0051189074
7	0xbdf5074a	-0.11964281
8	0x3e2479c8	0.16062081
9	0x3ec0b2bc	0.37636364
10	0x3df82a46	0.12117438
11	0x3dcd96e5	0.100385465
12	0x3b58df06	0.0033091917
13	0x3dd0fb69	0.10204203
14	0xbde800ff	-0.11328315
15	0x3d1d08bb	0.038338404
16	0x3e7cbb8e	0.24680921
17	0x3d82ecbf	0.06392812
18	0x3e99e2d9	0.30055884
19	0xbcbb6d48	-0.022879258
20	0x3d7bdd7f	0.061490532
21	0x3dfa4407	0.122200064
22	0x3ca3c405	0.01999093
23	0xbc4672b7	-0.012112311
24	0xbdd55096	-0.10415761
25	0x3dd8fbab	0.10594877
26	0x3b2b1fae	0.0026111412
27	0xbdd6e147	-0.10492187
28	0x3e8fdd54	0.28098547
29	0xbd6ed123	-0.058304917
30	0x3dd5c4cc	0.10437927
31	0x3c66447b	0.014054413
32	0x3c74b2e9	0.014935234
33	0x3dc18415	0.09449021
34	0xbe22a9a2	-0.15885022
35	0x3e18ebde	0.14933726
36	0x3e0ffa84	0.14060408
37	0xbe2df9ba	-0.16989794
38	0x3dd8afe7	0.10580426
39	0x3e238d24	0.1597181
40	0x3d02110e	0.031754546
41	0x3e8609e8	0.26179433
42	0x3e6f8995	0.23392327
43	0xbd3be0f1	-0.045868818
44	0x3dbf8a5b	0.09352561
45	0x3e105de8	0.14098322
46	0xbcc07bba	-0.023496497
47	0x3c2cdbfa	0.010550493
48	0x3d84bf67	0.064818196
49	0xbcccaa28	-0.02498348
50	0x3e678be5	0.2261196
51	0xbcbcaf19	-0.023032712
52	0xbddf5b67	-0.109061055
53	0xbdb95178	-0.09048742
54	0x3dc2b3c0	0.09506941
55	0xbc5e935e	-0.01358494
56	0x3d8c54be	0.06852101
57	0xbd01c1ed	-0.031679083
58	0x3dbb4eb7	0.09145873
59	0x3dab56e4	0.083661824
60	0x3d8315e7	0.06400662
61	0xbe340b4b	-0.17582433
62	0x3de44974	0.111468226
63	0x3d86073c	0.065443486

sequential_20/sequential_13/conv1d_14/BiasAdd/ReadVariableOp/resource f4 [64]
0	0x3e45ee02	0.19329074
1	0x3e31e051	0.17370726
2	0x3cd32970	0.025776595
3	0x3e5f2036	0.21789631
4	0x3db078b5	0.08616773
5	0x3e74f493	0.23921423
6	0x3e120899	0.14261092
7	0xbdf2813d	-0.118410565
8	0x3da990d5	0.08279578
9	0xbd025452	-0.031818695
10	0x3ced64f7	0.028978808
11	0x3c78ada4	0.015178118
12	0xbd6daa17	-0.05802354
13	0x3e62e7e5	0.22158773
14	0x3d26aef3	0.04069419
15	0x3e5b6cf0	0.21428275
16	0xbb7caf7b	-0.0038556743
17	0x3d060b95	0.03272589
18	0xbdddddaf	-0.108332984
19	0x3e327308	0.17426693
20	0x3e3bb123	0.18329291
21	0x3b7760d2	0.0037746918
22	0x3dff65d4	0.12470594
23	0x3e5b9569	0.21443714
24	0x3d23fc7e	0.040035717
25	0x3da7cff3	0.0819396
26	0x3af9b004	0.0019049649
27	0x3dc08675	0.09400646
28	0x3d9c3e8d	0.07629118
29	0xbc4695fe	-0.012120722
30	0x3e5cada5	0.21550615
31	0x3d3eb17d	0.046555985
32	0x3e0e778c	0.13912791
33	0x3dc12abe	0.094319806
34	0x3dd0424c	0.10168895
35	0x3e2d463a	0.1692132
36	0x3e5054cf	0.20344852
37	0x3c86f7d8	0.016475603
38	0x3baf03b4	0.0053410176
39	0x3e2a5d86	0.16637239
40	0x3e50a20e	0.20374319
41	0x3c7aa532	0.015298175
42	0x3d805c43	0.062675975
43	0x3df5581a	0.11979695
44	0x3d85698c	0.06514272
45	0xbcd1871c	-0.02557712
46	0x3dee1c48	0.11626488
47	0x3ea9d53b	0.33170494
48	0x3eb3e816	0.35138005
49	0x3e85f3e2	0.2616263
50	0x3e3065e6	0.17226371
51	0x3dc39877	0.09550565
52	0x3e130a83	0.14359479
53	0x3e75340c	0.23945636
54	0x3e4820d7	0.19543777
55	0x3e78609b	0.24255602
56	0x3df3f733	0.11912384
57	0x3c87cf53	0.016578352
58	0x3e8e11b8	0.27747893
59	0x3e00a10f	0.12561439
60	0x3d391c31	0.0451929
61	0x3d43c79b	0.04779778
62	0x3c6c4c9c	0.014422562
63	0x3e405aa2	0.18784574

sequential_20/sequential_11/residual_5/sequential_10/conv1d_11/BiasAdd/ReadVariableOp/resource f4 [64]
0	0xbd69c131	-0.057069007
1	0x3ddc5304	0.107580215
2	0x3dcf9eb1	0.1013769
3	0x3cb9822f	0.022645084
4	0x3e5b3246	0.21405897
5	0xbd40762c	-0.046987697
6	0x3e50aec1	0.20379163
7	0x3d70a06a	0.058746733
8	0x3e0c8679	0.13723172
9	0x3d0941d0	0.03351003
10	0x3df1bd6d	0.11803708
11	0x3d9dea54	0.0771071
12	0x3e9c3b0b	0.30513796
13	0x3dc4762c	0.09592852
14	0x3e828fa7	0.25500223
15	0x3e99980d	0.29998818
16	0x3ceb3e98	0.02871637
17	0x3dc9e428	0.098579705
18	0xbda1819c	-0.07886049
19	0x3d847fc1	0.064696796
20	0x3ccacbfe	0.024755474
21	0x3e4903e6	0.19630393
22	0x3d3bcd2d	0.045849968
23	0x3d51b197	0.051194753
24	0x3e556c4e	0.20842096
25	0xbbe91041	-0.0071125333
26	0xbd90fdda	-0.07079668
27	0x3e7858be	0.24252602
28	0xbd47f0b9	-0.048813555
29	0x3ddfaf1b	0.109220706
30	0x3d69b9fd	0.057062138
31	0xbdd40b46	-0.10353713
32	0x3d781fe1	0.060577277
33	0x3d81e169	0.06341822
34	0x3da26af4	0.07930556
35	0x3dc4a3c4	0.09601548
36	0xbe21889f	-0.15774773
37	0xbe2aa297	-0.16663586
38	0x3d5739d8	0.0525454
39	0x3d6b6ab4	0.057474807
40	0x3df35123	0.1188071
41	0x3cbfdeeb	0.023421725
42	0xbd272589	-0.04080728
43	0x3df2567d	0.118329026
44	0xbd47876d	-0.048713136
45	0x3e2fd7aa	0.17172113
46	0x3e0e872d	0.13918753
47	0x3dfeceb6	0.12441771
48	0x3e0d2326	0.1378294
49	0xbd0ea77a	-0.034827687
50	0x3dcd535b	0.100256644
51	0x3e7a7d88	0.24461949
52	0x3e8b4ced	0.27207127
53	0x3ea8102b	0.32824835
54	0x3dda98e3	0.10673692
55	0xbd94be3a	-0.07262845
56	0x3dd066f9	0.101758905
57	0xbd769aca	-0.060206212
58	0x3dc261ac	0.09491286
59	0xbd4aebd6	-0.049541317
60	0xbcc0eef3	-0.02355144
61	0xbca4ff7c	-0.020141356
62	0xbdf5be8b	-0.11999234
63	0x3d0e67c4	0.034766927

sequential_20/sequential_11/conv1d_12/BiasAdd/ReadVariableOp/resource f4 [64]
0	0x3dee2400	0.1162796
1	0x3da28f9b	0.07937547
2	0x3e591655	0.21199925
3	0x3e1e5ba9	0.15464653
4	0x3e05bdb9	0.13060655
5	0x3de540cd	0.111940004
6	0x3ce7c264	0.028290935
7	0x3d949d01	0.072565086
8	0x3ddbd28b	0.10733517
9	0x3e25d780	0.16195488
10	0x3d9c3163	0.07626607
11	0x3de77dab	0.11303266
12	0xbddb9cdd	-0.10723279
13	0xbc115685	-0.0088707255
14	0x3dc3899c	0.09547731
15	0x3e262537	0.16225134
16	0xbdd89c60	-0.10576701
17	0xbd6e1916	-0.058129393
18	0x3e351648	0.17684281
19	0x3de61b9c	0.11235735
20	0x3da3beb1	0.07995356
21	0x3e2c0478	0.1679858
22	0x3e841722	0.257989
23	0x3d75dfc9	0.06002787
24	0x3d92566d	0.07145391
25	0x3e8a8c3a	0.2706011
26	0x3de2e60a	0.11079033
27	0x3d6eaa0c	0.058267638
28	0xbcc3abdc	-0.02388566
29	0x3e088ee6	0.13335761
30	0x3e6eb4e1	0.23311187
31	0x3e19120b	0.14948289
32	0x3e188b3f	0.14896868
33	0x3e7ae9c0	0.24503231
34	0x3d9062bc	0.07050082
35	0x3e36a3db	0.17835943
36	0x3d75d429	0.060016785
37	0x3e523cf2	0.20531061
38	0x3e29ea00	0.1659317
39	0x3e872a31	0.26399377
40	0x3e6b79a6	0.22995624
41	0x3d783448	0.060596734
42	0x3dc6d0ca	0.09707792
43	0x3e0aaeeb	0.13543288
44	0x3d66221c	0.056184873
45	0x3dfdf34d	0.123999216
46	0x3e70adce	0.23503801
47	0x3ddc0bb2	0.10744418
48	0xbd84352b	-0.064554535
49	0x3e191413	0.14949064
50	0x3dca81cb	0.09888037
51	0x3dd401bf	0.103518955
52	0x3e00cd7e	0.12578389
53	0x3dfcccd0	0.123437524
54	0x3e5475ff	0.20748137
55	0x3e160117	0.14648853
56	0x3d03d590	0.03218609
57	0xbdc3ade3	-0.09554651
58	0x3e5f8458	0.21827829
59	0x3d66e9ec	0.05637543
60	0x3d90d6c2	0.07072212
61	0x3baccedb	0.0052736825
62	0x3daf7480	0.085671425
63	0xbdc8d9cd	-0.09807167

sequential_20/sequential_1/residual/sequential/conv1d_1/BiasAdd/ReadVariableOp/resource f4 [64]
0	0x3e2b8541	0.16750051
1	0x3de193aa	0.11014493
2	0x3dc3707f	0.09542941
3	0x3e4bb884	0.19894606
4	0x3e4cf570	0.20015502
5	0x3eb5cd16	0.3550803
6	0x3e9040fe	0.28174585
7	0x3ecea20a	0.40358
8	0x3e950977	0.29108784
9	0xbc7be076	-0.01537334
10	0x3dd32712	0.103101864
11	0x3e87d86f	0.26532313
12	0xbdc50c90	-0.09621537
13	0x3e044155	0.12915547
14	0x3e6f545f	0.23372029
15	0x3d95d6c2	0.073163524
16	0x3e4386ad	0.19094343
17	0xbd56fca5	-0.052487034
18	0x3d842ae8	0.06453496
19	0xbcf87efe	-0.030333992
20	0x3ec3be5d	0.38231173
21	0x3d8f33d8	0.0699231
22	0xbcbc69cc	-0.022999667
23	0x3e3f2541	0.18666555
24	0x3d8ca58e	0.068675146
25	0x3e7c544b	0.2464153
26	0x3e130e34	0.14360887
27	0x3d36d87b	0.044640046
28	0x3ed78bf2	0.42098957
29	0x3eb0d234	0.34535372
30	0x3e8bb281	0.27284625
31	0xbce331d7	-0.027733726
32	0x3e0437c9	0.12911905
33	0xbc3083b1	-0.010773585
34	0x3e961efd	0.29320517
35	0x3ecf7a7c	0.40523136
36	0x3dd079d5	0.101794876
37	0x3eba317f	0.36365888
38	0x3ded7d61	0.1159618
39	0xbdd9f17a	-0.10641761
40	0x3ee12146	0.43970698
41	0x3ded177a	0.115767434
42	0x3e6bfed7	0.23046432
43	0x3e447997	0.19187008
44	0x3e6e1613	0.23250608
45	0x3d30eec9	0.043196473
46	0xbda13c0c	-0.07872781
47	0xbde2f333	-0.11081543
48	0xbc3d5fb5	-0.011558463
49	0x3e7041cb	0.23462598
50	0x3e8ec445	0.27884117
51	0x3ce346f5	0.027743796
52	0x3ef67055	0.48132578
53	0x3e42229d	0.18958516
54	0x3f16ed0d	0.5895546
55	0x3f0a7f88	0.5410085
56	0xbd3797fb	-0.044822674
57	0x3f048fcf	0.51781934
58	0x3e7290d6	0.23688063
59	0x3d02ad47	0.03190353
60	0x3adccd17	0.001684579
61	0x3d2444a9	0.040104542
62	0x3efebe57	0.49754593
63	0x3f0af417	0.542787

sequential_20/sequential_1/conv1d_2/BiasAdd/ReadVariableOp/resource f4 [64]
0	0x3e3b4890	0.18289399
1	0x3dff8405	0.124763526
2	0x3ddf8bc6	0.109153315
3	0x3e387472	0.1801317
4	0x3d682553	0.05667622
5	0x3e290549	0.16505922
6	0x3e59eeec	0.21282548
7	0x3e23a827	0.15982114
8	0x3de87559	0.11350507
9	0x3ea84038	0.32861495
10	0x3e76f3bb	0.24116413
11	0x3e28f559	0.16499843
12	0x3e1a0587	0.15041171
13	0x3dcdac48	0.10042626
14	0x3d5b44a8	0.053532273
15	0x3d203443	0.03911234
16	0x3dc22249	0.094791956
17	0x3dc0780d	0.09397898
18	0x3e68b94d	0.22726937
19	0x3ded44f2	0.11585416
20	0x3e82046c	0.25394
21	0x3e30d768	0.17269671
22	0x3e299691	0.16561343
23	0x3ea94561	0.33060744
24	0x3e07eb7a	0.13273421
25	0x3de51638	0.111858785
26	0x3e7e57ed	0.24838229
27	0x3e4f5461	0.20247032
28	0x3e456ac1	0.19279005
29	0x3db25d92	0.08709253
30	0x3d5da010	0.054107726
31	0x3cff5bf7	0.031171782
32	0x3d2b6b0f	0.041850146
33	0xbd385891	-0.04500634
34	0x3dadfcd0	0.08495486
35	0x3e5ea62e	0.2174308
36	0x3dd55554	0.10416666
37	0xbd322f85	-0.04350235
38	0x3e6f8b7e	0.23393056
39	0x3d513139	0.051072333
40	0xbd88ef82	-0.066863075
41	0x3da18983	0.078875564
42	0x3c8b68f2	0.017017815
43	0x3e8314f3	0.2560192
44	0x3e27a97d	0.16373248
45	0x3d9ee2ef	0.07758128
46	0x3ea8b9a9	0.32954147
47	0x3ea60247	0.32423612
48	0x3e220041	0.1582041
49	0x3eaa32fb	0.3324202
50	0x3d837eba	0.064206555
51	0x3d4cb106	0.04997351
52	0x3e28f54e	0.16499826
53	0x3e6e0550	0.23244214
54	0x3e84b9f0	0.2592311
55	0xbd2d3b0d	-0.042292643
56	0x3e6249ef	0.22098516
57	0x3e4e39c3	0.20139222
58	0x3e0e4a76	0.13895592
59	0x3e7fc78c	0.24978465
60	0x3e434e2c	0.19072789
61	0x3e5df3d7	0.21675049
62	0x3e9f47a4	0.31109345
63	0x3e730a1f	0.2373433

sequential_20/dense/BiasAdd/ReadVariableOp/resource f4 [18]
0	0xbd9ebbe9	-0.07750685
1	0xbda51841	-0.08061267
2	0xbde7b5ce	-0.11313973
3	0xbdefd199	-0.117098995
4	0xbe2c9ca0	-0.16856623
5	0xbdfae8f5	-0.12251464
6	0xbdf12104	-0.11773875
7	0xbdadd1a5	-0.08487252
8	0xbda107df	-0.078628294
9	0xbddeeda8	-0.10885173
10	0xbd1e0c6b	-0.03858606
11	0xbdef3259	-0.11679525
12	0xbd883189	-0.06650073
13	0xbbc63857	-0.0060491967
14	0xbeff0573	-0.49808845
15	0xbf1cc0b6	-0.61231554
16	0xbf20e322	-0.6284658
17	0xbeec37b3	-0.46136245

sequential_20/conv1d/BiasAdd/ReadVariableOp/resource f4 [64]
0	0x3e55b8a5	0.20871218
1	0xbe890b58	-0.26766467
2	0xbe055ade	-0.13022944
3	0x3c22195a	0.00989374
4	0x3ea9fb06	0.33199328
5	0x3f030a92	0.51188004
6	0x3e48e32f	0.19617914
7	0x3d8b3420	0.067970514
8	0xbe04eceb	-0.12981002
9	0x3e9a5a6c	0.3014711
10	0xbbbe5485	-0.0058084154
11	0x3dedf72c	0.1161941
12	0xbd471e3f	-0.04861283
13	0xbe6e7d39	-0.23289956
14	0x3e7e18ce	0.2481415
15	0x3f0a915e	0.5412806
16	0x3ebf116d	0.37317982
17	0x3e250d36	0.16118321
18	0xbdb88455	-0.09009615
19	0x3cf22419	0.029558228
20	0xbd58d873	-0.052940797
21	0xbe5e3d66	-0.21703109
22	0x3d4b4619	0.049627397
23	0x3e9f400a	0.31103545
24	0xbe28bf7d	-0.16479297
25	0x3f1a2b94	0.60222745
26	0x3d4686f3	0.04846854
27	0x3e837237	0.25673077
28	0xbe31a12f	-0.17346643
29	0x3ec7a477	0.38992664
30	0xbdac80d1	-0.08423007
31	0xbe52d61a	-0.20589486
32	0xbcf65c4c	-0.030073307
33	0x3e85fce6	0.2616951
34	0x3e46d89a	0.19418564
35	0x3e3da265	0.1851898
36	0xbdcb8101	-0.09936715
37	0xbe01b537	-0.12666784
38	0xbd61dbf6	-0.05514141
39	0x3f53283f	0.82483286
40	0x3dfefe89	0.124508925
41	0x3e660315	0.22462113
42	0xbd8515df	-0.06498312
43	0xbe5ed16a	-0.21759573
44	0xbdd40a34	-0.103535086
45	0x3dee5125	0.11636571
46	0x3da9d88f	0.082932584
47	0xbd3ec8cb	-0.04657821
48	0xbe0708e7	-0.1318699
49	0x3e342591	0.17592455
50	0x3e71309d	0.23553701
51	0x3ed210d6	0.4102847
52	0x3eb64cfa	0.35605603
53	0xbe4665fa	-0.19374838
54	0xbde3cb28	-0.11122733
55	0x3ea12824	0.31475937
56	0x3e183f7f	0.14867972
57	0x3e5ae822	0.21377614
58	0xbe22844b	-0.15870778
59	0xbd3198b6	-0.043358527
60	0x3ed4c7b3	0.41558608
61	0x3eeb2727	0.45928308
62	0xbd5ad4e7	-0.053425696
63	0xbe685391	-0.22688128

sequential_20/batch_normalization/batchnorm/mul f4 [64]
0	0x3ea59147	0.323374
1	0x3e8089c7	0.25105116
2	0x3e483ec7	0.19555198
3	0x3e8b7e9f	0.27245042
4	0x3e2ed2f0	0.17072654
5	0x3e9d23a7	0.30691263
6	0x3ebc7102	0.36804968
7	0x3e876f9d	0.26452342
8	0x3ebb75ce	0.36613315
9	0x3e7957e0	0.24349928
10	0x3eefe55a	0.4685467
11	0x3eac1f43	0.336176
12	0x3e4cabf7	0.19987474
13	0x3ef52141	0.47876933
14	0x3e9e8bfa	0.3096617
15	0x3e1bbe99	0.15209426
16	0x3e927fb0	0.28613043
17	0x3e7c9b93	0.24668722
18	0x3e968e1f	0.29405305
19	0x3e0e1b39	0.13877572
20	0x3e9ceb44	0.30648243
21	0x3e51429c	0.20435566
22	0x3ea3ca7a	0.31990415
23	0x3e9f176f	0.31072566
24	0x3e957fbd	0.2919902
25	0x3eebde89	0.46068218
26	0x3e5dad0e	0.21648046
27	0x3ece7cca	0.40329581
28	0x3e578150	0.21045423
29	0x3f30594f	0.68886274
30	0x3ec50c07	0.3848574
31	0x3e6eada9	0.23308434
32	0x3e84c7ba	0.2593363
33	0x3ea18f0e	0.31554455
34	0x3f4430d7	0.76637024
35	0x3ee5b2c1	0.4486294
36	0x3eb09277	0.34486744
37	0x3eba7ddc	0.36424148
38	0x3e8edbd7	0.279021
39	0x3e3aa9b2	0.18228796
40	0x3ef49bec	0.4777521
41	0x3ef4e13b	0.47828087
42	0x3e200c67	0.15629731
43	0x3e7f9679	0.24959745
44	0x3e449585	0.19197662
45	0x3ea97e5d	0.3310422
46	0x3e5a4f65	0.21319349
47	0x3f21ae03	0.63156146
48	0x3eb15b5b	0.3464001
49	0x3e8fcb19	0.2808464
50	0x3ef91419	0.48648146
51	0x3e7db5e5	0.24776419
52	0x3edddb8b	0.4333156
53	0x3e89f5e0	0.269454
54	0x3ea57dea	0.32322627
55	0x3ecd6d45	0.4012243
56	0x3e35ffbf	0.1777334
57	0x3e87bbd1	0.2651048
58	0x3eb4dc99	0.35324553
59	0x3e557c15	0.20848115
60	0x3e95e800	0.29278564
61	0x3ee20ced	0.44150487
62	0x3f38c55a	0.72176135
63	0x3f8c2bcb	1.0950865

sequential_20/batch_normalization/batchnorm/sub f4 [64]
0	0xbe5b2e8a	-0.21404472
1	0xbe963148	-0.29334474
2	0xbf0e04a3	-0.55475825
3	0xbec64288	-0.38722634
4	0xbf131d1b	-0.57466286
5	0xbe3bdef7	-0.18346773
6	0xbcb7e5f0	-0.02244851
7	0xbe8516ba	-0.25993901
8	0xbdf7011a	-0.12060757
9	0xbebbc552	-0.3667398
10	0xbee22d75	-0.44175306
11	0xbe92f9d4	-0.2870623
12	0xbe7f4608	-0.24929059
13	0xbf1dfc34	-0.61712956
14	0xbe9d627f	-0.3073921
15	0xbe0dd6d7	-0.13851486
16	0xbef0f317	-0.47060463
17	0xbf2577aa	-0.6463572
18	0xbe4ccbc5	-0.19999607
19	0xbe9b2c9d	-0.30307475
20	0xbf1a5cb8	-0.6029773
21	0xbed23d5a	-0.41062433
22	0xbf224fac	-0.6340282
23	0xbecfef24	-0.40612137
24	0xbe895870	-0.26825285
25	0xbeaeadf6	-0.34117097
26	0xbe824d13	-0.25449428
27	0xbeaa5091	-0.33264592
28	0x3e84c4ba	0.2593134
29	0xbeddacd9	-0.43295935
30	0xbef6004c	-0.48047101
31	0xbefda46e	-0.49539512
32	0xbf0569c2	-0.521145
33	0xbdeed4f4	-0.11661711
34	0xbf13d62e	-0.5774869
35	0xbeb09724	-0.3449031
36	0xbe8e6fd9	-0.27819708
37	0xbee0af3d	-0.43883696
38	0xbf09da1d	-0.5384844
39	0xbeff858c	-0.49906576
40	0xbeef00b7	-0.46680233
41	0xbc0cbba0	-0.008589655
42	0xbdb912b8	-0.090367734
43	0xbeb407e6	-0.35162276
44	0xbee73e8c	-0.45164907
45	0xbf16c69b	-0.588968
46	0xbf245ba5	-0.6420234
47	0xbea51128	-0.32239652
48	0xbe90abf6	-0.28256196
49	0xbeaf0eb4	-0.34190905
50	0xbee3d105	-0.44495407
51	0xbdf83b7c	-0.12120721
52	0xbf0e7201	-0.55642706
53	0xbe8bc95c	-0.27302063
54	0xbef85c16	-0.48507756
55	0xbee49118	-0.44641948
56	0xbf1c21c8	-0.60989046
57	0xbdd37842	-0.10325672
58	0xbcf4eb90	-0.029897481
59	0xbf361b76	-0.7113565
60	0xbe9be87a	-0.30450803
61	0xbec3bf56	-0.38231915
62	0x3e878bbb	0.26473793
63	0xbf2ce9aa	-0.67544043

sequential_20/dense/MatMul f4 [18, 1024]
0	0xbd3039ed	-0.043023992
1	0xbb629294	-0.003457223
2	0x3cf08099	0.029358195
3	0xbe7c1add	-0.24619623
4	0xbda92055	-0.0825812
5	0x3e258586	0.16164216
6	0xbdb57e59	-0.088619895
7	0x3cf85f4a	0.030318875
8	0x3e422256	0.1895841
9	0xbd4f6a20	-0.050638318
10	0x3e52b702	0.20577624
11	0xbe3dd7df	-0.1853938
12	0xbe962a7f	-0.29329297
13	0x3b7eb10b	0.003886285
14	0x3c1ca312	0.009560363
15	0x3cf36404	0.029710777
16	0x3d555071	0.052078668
17	0x3d839ccc	0.06426391
18	0xbe1bf33d	-0.15229507
19	0x3d28dacd	0.04122429
20	0xbdaddaab	-0.08488973
21	0xbe32469b	-0.17409746
22	0x3d88f174	0.066866785
23	0xbeb938b8	-0.36176085
24	0xbd515bde	-0.051113002
25	0xbd38ae71	-0.045088235
26	0xbe520c4b	-0.20512502
27	0x3dbdea7a	0.092732385
28	0x3dffb0ba	0.1248488
29	0xbc8eb4f1	-0.017420264
30	0xbe536a8c	-0.20646113
31	0x3dcc9f9f	0.09991383
32	0xbe3ddd1a	-0.18541375
33	0xbe036daa	-0.12834802
34	0x38e1a399	0.000107593085
35	0xbccceef8	-0.025016293
36	0xbd7d3a29	-0.061823044
37	0xbe18e20f	-0.14929985
38	0xbd6e58d5	-0.058190186
39	0x3d44f101	0.0480814
40	0x3e22e7c2	0.15908721
41	0xbeb90b70	-0.3614154
42	0xbe5b46ec	-0.21413773
43	0xbe8edcd0	-0.27902842
44	0xbe2da9b9	-0.16959275
45	0xbd766779	-0.060157273
46	0xbd91a1a7	-0.07110911
47	0xbe503bf8	-0.20335376
48	0xbe033038	-0.12811363
49	0x3dd664e1	0.1046846
50	0xbe51449c	-0.20436329
51	0x3daa3023	0.083099626
52	0xbe48fb19	-0.19627036
53	0x3de9fa3d	0.11424682
54	0xbe01b34d	-0.12666054
55	0x3ce85051	0.02835861
56	0xbd9c489a	-0.07631035
57	0xbd696fb3	-0.05699129
58	0x3d7ef7ef	0.062248167
59	0x3dcb74cc	0.099343866
60	0xbde48f1e	-0.1116011
61	0x3dced6ee	0.10099588
62	0x3d8902bb	0.06689974
63	0x3e68125b	0.22663252
64	0x3d98d1c1	0.074618824
65	0x3e0b6ea7	0.1361643
66	0xbdc0dcde	-0.09417127
67	0x3ddab018	0.106781185
68	0x3d627e2b	0.055296104
69	0xbdd072f1	-0.10178173
70	0xbdab627b	-0.08368393
71	0xbe97e604	-0.29667675
72	0xbd217fb3	-0.039428424
73	0x3e2f3265	0.17109068
74	0x3e1185b4	0.1421116
75	0xbe3ad539	-0.182454
76	0xbe8590dc	-0.2608708
77	0xbe7608a3	-0.24026732
78	0xbcce2251	-0.025162848
79	0x3da925e1	0.08259178
80	0x3d15c0ea	0.03656093
81	0x3dcf823c	0.10132262
82	0xbe091ff2	-0.13391092
83	0x3daf50c1	0.085603245
84	0xbded6bd2	-0.11592831
85	0x3e3d6bca	0.1849815
86	0xbe396d32	-0.18108061
87	0xbdcf990a	-0.10136612
88	0xbd88d9f5	-0.06682197
89	0xbe105060	-0.1409316
90	0xbaff639f	-0.0019484645
91	0xbc9fabda	-0.019491125
92	0xbe3f1b08	-0.18662655
93	0x3de329fa	0.11091991
94	0x3d10a725	0.03531565
95	0x3e41b157	0.18915306
96	0xbd0cea1b	-0.034402948
97	0x3e405428	0.18782103
98	0xbdae6334	-0.08515015
99	0xbe9ef1d1	-0.31043866
100	0xbd8c97dd	-0.06864903
101	0xbe07711b	-0.1322674
102	0xbd38f897	-0.04515895
103	0xbd24efda	-0.040267803
104	0xbd96a71a	-0.07356091
105	0xbb0701d6	-0.002060046
106	0xbe66e151	-0.22546889
107	0xbbf0d13d	-0.007349162
108	0x3df60bb7	0.12013953
109	0x3d2f33f2	0.04277415
110	0xbe3fb194	-0.18720084
111	0x3b0e2492	0.0021689278
112	0x3dcbd945	0.0995355
113	0xbe05f031	-0.13079907
114	0xbd4272db	-0.047472816
115	0xbd5c4922	-0.053780682
116	0xbd8d3263	-0.06894376
117	0x3dc16549	0.09443147
118	0xbd999aaf	-0.07500207
119	0x3cbe9414	0.023263969
120	0x3d90ee97	0.070767574
121	0x3cf5fd72	0.030028079
122	0xbd4f8684	-0.050665393
123	0x3daa5bf2	0.083183184
124	0x3d78ffb3	0.06079073
125	0x3e3ee5b1	0.18642308
126	0x3d8ac19b	0.067752086
127	0x3e40d37b	0.18830673
128	0xbe0b9da5	-0.13634355
129	0xbdeec59c	-0.11658785
130	0xbc726942	-0.014795603
131	0x3dd6be5f	0.10485529
132	0x3da64ae1	0.08119751
133	0xbd88fac7	-0.06688457
134	0xbd8e1d5d	-0.06939194
135	0x3db49bf2	0.08818807
136	0x3e2817ae	0.16415283
137	0xbda0daf8	-0.07854265
138	0x3e2c7738	0.16842353
139	0xbe94c433	-0.29055938
140	0xbd9a1d4c	-0.07525119
141	0x3d78d14e	0.060746484
142	0x3dc0d792	0.09416117
143	0xbe66214e	-0.22473642
144	0x3d9882f5	0.07446853
145	0xbc63c034	-0.013900805
146	0xbd2d834f	-0.042361554
147	0x3c985f1b	0.018600037
148	0x3de1c383	0.11023619
149	0x3e63d2b6	0.22248349
150	0xbe7b2f66	-0.245298
151	0xbe119f51	-0.1422093
152	0xbe75b6ae	-0.23995468
153	0xbdb90182	-0.09033491
154	0xbe541270	-0.20710158
155	0x3e4d8b90	0.2007277
156	0xbdb06580	-0.086131096
157	0x3ddaebf4	0.10689536
158	0x3dd09615	0.10184876
159	0x3e2306a0	0.15920496
160	0xbca58bb8	-0.020208225
161	0xbead1c9f	-0.338109
162	0xbd1b28bd	-0.037880648
163	0x3d8b9731	0.06815947
164	0xbe90d3d5	-0.28286615
165	0xbd9b3ad7	-0.07579582
166	0x3e008b74	0.12553197
167	0xbe6d94ce	-0.23201296
168	0xbe43a2ff	-0.19105147
169	0x3d96ab05	0.07356838
170	0xbe044025	-0.12915094
171	0x3da6deeb	0.08147987
172	0xbe07e536	-0.13271031
173	0xbdf352bd	-0.118810154
174	0xbd5c222a	-0.05374352
175	0x3d9940c1	0.07483054
176	0x3dc59345	0.0964723
177	0xbd87dffd	-0.06634519
178	0x3d878c17	0.06618517
179	0xbe252d11	-0.16130473
180	0xbd971e59	-0.07378835
181	0xbdf687ad	-0.12037597
182	0x3e608b66	0.21928176
183	0x3daf0a36	0.085468695
184	0x3e6a8908	0.22903836
185	0xbd9d49b9	-0.07680077
186	0xbe2bd674	-0.16781026
187	0xbd8bd2d4	-0.06827322
188	0xbd87a1d7	-0.066226654
189	0x3e481c87	0.19542132
190	0xbdfa1a40	-0.12212038
191	0x3de32d36	0.11092608
192	0x3dc71993	0.09721675
193	0xbd8aa8dc	-0.067704886
194	0x3d503ab7	0.050837245
195	0x3e3676e0	0.17818785
196	0xbc86e44d	-0.016466284
197	0x3db3dce8	0.08782369
198	0x3e851286	0.25990695
199	0x3c89f623	0.016841
200	0x3c9bba94	0.019009866
201	0xbe842d9f	-0.25816056
202	0x3e519747	0.20467864
203	0xbdf9df78	-0.122008264
204	0x3d615ae4	0.05501832
205	0xbe58d4d0	-0.21174932
206	0xbe2da01f	-0.16955613
207	0x3e382d19	0.17985953
208	0xbcdf7646	-0.027278077
209	0xbd40c258	-0.04706034
210	0xbe2708d2	-0.16311958
211	0x3c76a1c1	0.015053214
212	0x3e4e7f69	0.2016579
213	0xbddb7c3f	-0.107170574
214	0x3e8ff6d9	0.28118017
215	0xbe53447e	-0.20631596
216	0xbce2ee0a	-0.027701396
217	0xbea3dbb4	-0.32003558
218	0xbdf6fd2e	-0.12060009
219	0xbd8723c0	-0.06598616
220	0x3d23d963	0.040002238
221	0x3e815b6e	0.25265068
222	0xbdb2fd65	-0.087397374
223	0xbcecdad3	-0.028912937
224	0x3c03203c	0.008003291
225	0xbb402ba0	-0.0029322878
226	0x3d651bca	0.055934705
227	0x3d6a69a8	0.057229668
228	0xbd8cbcd7	-0.06871956
229	0xbe022957	-0.12711082
230	0x3d7519ef	0.059839185
231	0xbe92a99a	-0.2864502
232	0xbdaf0656	-0.0854613
233	0xbe892d23	-0.2679225
234	0xbcc30040	-0.02380383
235	0xbe6bc867	-0.23025666
236	0x3d292631	0.041296188
237	0xbe3b2f88	-0.1827985
238	0x3cf9c530	0.030489534
239	0xbe25ebfa	-0.16203299
240	0xbe3a829c	-0.18213886
241	0xbdb69c2a	-0.08916505
242	0x3e20e3c4	0.15711886
243	0xbdb92443	-0.090401195
244	0x3d2b893f	0.041878935
245	0xbea95407	-0.3307192
246	0x3e0ad55a	0.1355795
247	0xbe57d43c	-0.21077055
248	0x3e382a25	0.17984827
249	0xbc59e160	-0.0132983625
250	0x3e9f9908	0.3117144
251	0xbe7d41b3	-0.24732094
252	0xbc45e455	-0.012078364
253	0x3da00922	0.07814242
254	0xbe0bc3f8	-0.13648975
255	0x3d5a7144	0.053330675

sequential_20/sequential_1/batch_normalization_2/batchnorm/mul f4 [64]
0	0x3f18e168	0.5971894
1	0x3f93ef71	1.1557447
2	0x3f4ded93	0.80440634
3	0x3f84c1fb	1.0371698
4	0x3fb1ab6b	1.3880438
5	0x3f4ce132	0.8003112
6	0x3ef642c5	0.48097816
7	0x3f1b09e7	0.60561985
8	0x3eb71ef6	0.3576581
9	0x3f83237a	1.0245202
10	0x3f3c7c57	0.7362723
11	0x3f3b481e	0.7315692
12	0x3f95c956	1.1702068
13	0x3ef76eec	0.48326814
14	0x3f6a1d9a	0.9145142
15	0x3f830d2a	1.0238392
16	0x3f3bf00b	0.7341315
17	0x3f10eac2	0.5660821
18	0x3f8d82c8	1.1055536
19	0x3f89083b	1.0705637
20	0x3f6ab5fc	0.91683936
21	0x3f97fe11	1.187441
22	0x3f88d20f	1.0689105
23	0x3f4c02b8	0.7969165
24	0x3f6af831	0.9178496
25	0x3f66bf26	0.9013542
26	0x3fa89060	1.316906
27	0x3f353475	0.7078317
28	0x3f5797b4	0.84215856
29	0x3f800311	1.0000936
30	0x3f969ec4	1.1767201
31	0x3f6f96d1	0.935895
32	0x3f91b231	1.1382505
33	0x3f3a1e7a	0.72702754
34	0x3f1af835	0.60534984
35	0x3f9f595e	1.2449148
36	0x3f9d172d	1.2272698
37	0x3f9995e5	1.1998869
38	0x3f5a9c81	0.85395056
39	0x3f629059	0.8850151
40	0x3f21d3a8	0.63213587
41	0x3f24499d	0.64174825
42	0x3f8e94cb	1.1139158
43	0x3f4e24e6	0.8052505
44	0x3f40290f	0.7506265
45	0x3f7c538a	0.9856497
46	0x3f404ca6	0.75116956
47	0x3f53d040	0.8273964
48	0x3f28977e	0.6585616
49	0x3f626170	0.8842993
50	0x3f4fba05	0.8114322
51	0x3f91e643	1.1398395
52	0x3fa1d8e8	1.264432
53	0x3fafb0d7	1.3725842
54	0x3f9c9d74	1.2235551
55	0x3f0eed70	0.5583105
56	0x3f1a959f	0.60384554
57	0x3f868f37	1.0512456
58	0x3f6ac2fc	0.9170377
59	0x3f7011e4	0.937773
60	0x3f0855e3	0.5325605
61	0x3f8a3dcc	1.0800109
62	0x3f2b6574	0.6695168
63	0x3fa67721	1.3005105

sequential_20/sequential_1/batch_normalization_2/batchnorm/sub f4 [64]
0	0xbf0f5551	-0.5598956
1	0xbf3d749e	-0.7400607
2	0xbecbc8f4	-0.39801753
3	0xbf6d4e18	-0.92697287
4	0xbe86af96	-0.26305836
5	0xbef3bba5	-0.476041
6	0xbedf605f	-0.43628213
7	0xbf4fc17d	-0.81154615
8	0xbf658c2e	-0.8966702
9	0xbfa9151b	-1.3209566
10	0xbf3a243f	-0.7271156
11	0xbf59efa3	-0.8513128
12	0xbf9b782e	-1.2146051
13	0xbede8975	-0.43464246
14	0xbee7bcb9	-0.4526117
15	0xbf032f9a	-0.5124451
16	0xbed6aadb	-0.41927227
17	0xbf0f9b3b	-0.5609624
18	0xbfa8008d	-1.3125168
19	0xbf975451	-1.1822606
20	0xbf2dd95f	-0.67909807
21	0xbe86ef8e	-0.2635464
22	0xbf439e37	-0.7641329
23	0xbfa6b3e2	-1.3023646
24	0xbf9bb435	-1.216437
25	0xbf788418	-0.9707656
26	0xbf4f6e9b	-0.81028146
27	0xbf937c9e	-1.1522405
28	0xbedf9b96	-0.4367339
29	0xbea6ae22	-0.32554728
30	0xbf5e5563	-0.8684904
31	0xbf09d39f	-0.53838533
32	0xbf9e090d	-1.2346512
33	0xbf16ce3d	-0.58908445
34	0xbe9e5eec	-0.30931795
35	0xbf9f3864	-1.2439084
36	0xbfa6cba1	-1.3030893
37	0xbf91ec19	-1.1400176
38	0xbfa3229f	-1.274494
39	0xbf025f6e	-0.50926864
40	0x3b2e0780	0.0026554763
41	0xbe834582	-0.25638968
42	0xbf5a4f1b	-0.85276955
43	0xbf6ea095	-0.9321378
44	0xbf85e100	-1.045929
45	0xbf4f1042	-0.8088418
46	0xbfc02835	-1.501227
47	0xbf8f38dd	-1.1189228
48	0xbf050e43	-0.51974887
49	0xbfa296f0	-1.2702312
50	0xbf146137	-0.5796084
51	0xbf1f78a6	-0.6229347
52	0xbf75972d	-0.959338
53	0xbf7b3275	-0.98123866
54	0xbfce01ed	-1.6094338
55	0xbd97d330	-0.07413328
56	0xbf27e2df	-0.6558055
57	0xbfb88bca	-1.441766
58	0xbf8ba56a	-1.0909855
59	0xbf86d979	-1.0535117
60	0xbf73b91c	-0.9520433
61	0xbf9356bf	-1.1510848
62	0xbf9a1506	-1.2037666
63	0xbf920603	-1.1408085

sequential_20/sequential_1/residual/sequential/batch_normalization_1/batchnorm/mul f4 [64]
0	0x41747ef3	15.280993
1	0x4189f419	17.244188
2	0x4172c5a9	15.173257
3	0x40ed9d4a	7.4254503
4	0x40a0d89a	5.0264406
5	0x411952e4	9.582737
6	0x409c45d5	4.8835244
7	0x4102d1e1	8.17624
8	0x41051442	8.317446
9	0x416c4f14	14.769306
10	0x401eaf41	2.4794466
11	0x40d9bcb0	6.804283
12	0x41924aee	18.286587
13	0x419dcffc	19.726555
14	0x4174ec12	15.307634
15	0x41859e22	16.702213
16	0x4175d65b	15.364833
17	0x413df0cc	11.871288
18	0x4192f111	18.367708
19	0x4197e738	18.9879
20	0x4125f551	10.372392
21	0x419510e6	18.633251
22	0x4131c867	11.111426
23	0x41529936	13.162405
24	0x4182223e	16.26672
25	0x4099700e	4.7949286
26	0x417611e6	15.37937
27	0x418265a2	16.299625
28	0x404fedf6	3.248899
29	0x40aee4d1	5.4654317
30	0x41887e01	17.061525
31	0x417f5585	15.958379
32	0x41963d4c	18.77993
33	0x4198326f	19.024626
34	0x4126b99e	10.420317
35	0x40608a2e	3.5084338
36	0x4099ad82	4.80243
37	0x410c8161	8.781587
38	0x413ccd1f	11.800078
39	0x41752bad	15.323163
40	0x40b190b7	5.5489154
41	0x404900c2	3.1406713
42	0x416f364b	14.950755
43	0x415e8865	13.908299
44	0x414dc577	12.860709
45	0x4140f6d2	12.060259
46	0x413111a6	11.066809
47	0x418c32fc	17.524895
48	0x4184dfd1	16.609285
49	0x414ca73b	12.790828
50	0x4190a41b	18.08013
51	0x418b192e	17.387295
52	0x411f0cd4	9.940632
53	0x4194d182	18.602299
54	0x4109dc8c	8.616344
55	0x40c1090b	6.032354
56	0x4146718d	12.402722
57	0x40ded05a	6.9629335
58	0x41813f1a	16.155811
59	0x411e1582	9.880251
60	0x417563d5	15.336873
61	0x41b23676	22.276592
62	0x409b48cc	4.8526363
63	0x41004a64	8.018162
